{"format": "graph-model", "generatedBy": "2.15.0", "convertedBy": "TensorFlow.js Converter v4.15.0", "signature": {"inputs": {"args_0": {"name": "args_0:0", "dtype": "DT_FLOAT", "tensorShape": {"dim": [{"size": "-1"}, {"size": "512"}, {"size": "512"}, {"size": "4"}]}}, "args_1": {"name": "args_1:0", "dtype": "DT_FLOAT", "tensorShape": {"dim": [{"size": "-1"}, {"size": "45"}]}}}, "outputs": {"Identity:0": {"name": "Identity:0", "dtype": "DT_FLOAT", "tensorShape": {"dim": [{"size": "-1"}, {"size": "512"}, {"size": "512"}, {"size": "4"}]}}, "output_2": {"name": "Identity_1:0", "dtype": "DT_FLOAT", "tensorShape": {"dim": [{"size": "-1"}, {"size": "512"}, {"size": "512"}, {"size": "1"}]}}, "Identity_2:0": {"name": "Identity_2:0", "dtype": "DT_FLOAT", "tensorShape": {"dim": [{"size": "-1"}, {"size": "512"}, {"size": "512"}, {"size": "4"}]}}, "Identity_3:0": {"name": "Identity_3:0", "dtype": "DT_FLOAT", "tensorShape": {"dim": [{"size": "-1"}, {"size": "512"}, {"size": "512"}, {"size": "4"}]}}, "output_5": {"name": "Identity_4:0", "dtype": "DT_FLOAT", "tensorShape": {"dim": [{"size": "-1"}, {"size": "512"}, {"size": "512"}, {"size": "2"}]}}}}, "modelTopology": {"node": [{"name": "StatefulPartitionedCall/siren_morpher03/sub_10/x", "op": "Const", "attr": {"dtype": {"type": "DT_FLOAT"}, "value": {"tensor": {"dtype": "DT_FLOAT", "tensorShape": {}}}}}, {"name": "StatefulPartitionedCall/siren_morpher03/strided_slice_8/stack", "op": "Const", "attr": {"value": {"tensor": {"dtype": "DT_INT32", "tensorShape": {"dim": [{"size": "4"}]}}}, "dtype": {"type": "DT_INT32"}}}, {"name": "StatefulPartitionedCall/siren_morpher03/strided_slice_8/stack_1", "op": "Const", "attr": {"value": {"tensor": {"dtype": "DT_INT32", "tensorShape": {"dim": [{"size": "4"}]}}}, "dtype": {"type": "DT_INT32"}}}, {"name": "StatefulPartitionedCall/siren_morpher03/strided_slice_8/stack_2", "op": "Const", "attr": {"value": {"tensor": {"dtype": "DT_INT32", "tensorShape": {"dim": [{"size": "4"}]}}}, "dtype": {"type": "DT_INT32"}}}, {"name": "StatefulPartitionedCall/siren_morpher03/strided_slice_9/stack", "op": "Const", "attr": {"value": {"tensor": {"dtype": "DT_INT32", "tensorShape": {"dim": [{"size": "4"}]}}}, "dtype": {"type": "DT_INT32"}}}, {"name": "StatefulPartitionedCall/siren_morpher03/strided_slice_9/stack_1", "op": "Const", "attr": {"dtype": {"type": "DT_INT32"}, "value": {"tensor": {"dtype": "DT_INT32", "tensorShape": {"dim": [{"size": "4"}]}}}}}, {"name": "StatefulPartitionedCall/siren_morpher03/strided_slice_9/stack_2", "op": "Const", "attr": {"value": {"tensor": {"dtype": "DT_INT32", "tensorShape": {"dim": [{"size": "4"}]}}}, "dtype": {"type": "DT_INT32"}}}, {"name": "StatefulPartitionedCall/siren_morpher03/ExpandDims_5/dim", "op": "Const", "attr": {"value": {"tensor": {"dtype": "DT_INT32", "tensorShape": {}}}, "dtype": {"type": "DT_INT32"}}}, {"name": "StatefulPartitionedCall/siren_morpher03/BatchGatherND/strided_slice_2/stack", "op": "Const", "attr": {"dtype": {"type": "DT_INT32"}, "value": {"tensor": {"dtype": "DT_INT32", "tensorShape": {"dim": [{"size": "1"}]}}}}}, {"name": "StatefulPartitionedCall/siren_morpher03/BatchGatherND/strided_slice_2/stack_1", "op": "Const", "attr": {"value": {"tensor": {"dtype": "DT_INT32", "tensorShape": {"dim": [{"size": "1"}]}}}, "dtype": {"type": "DT_INT32"}}}, {"name": "StatefulPartitionedCall/siren_morpher03/BatchGatherND/strided_slice_2/stack_2", "op": "Const", "attr": {"value": {"tensor": {"dtype": "DT_INT32", "tensorShape": {"dim": [{"size": "1"}]}}}, "dtype": {"type": "DT_INT32"}}}, {"name": "StatefulPartitionedCall/siren_morpher03/BatchGatherND/ones", "op": "Const", "attr": {"value": {"tensor": {"dtype": "DT_INT32", "tensorShape": {"dim": [{"size": "2"}]}}}, "dtype": {"type": "DT_INT32"}}}, {"name": "StatefulPartitionedCall/siren_morpher03/BatchGatherND/Range/start", "op": "Const", "attr": {"value": {"tensor": {"dtype": "DT_INT32", "tensorShape": {}}}, "dtype": {"type": "DT_INT32"}}}, {"name": "StatefulPartitionedCall/siren_morpher03/BatchGatherND/Range/delta", "op": "Const", "attr": {"dtype": {"type": "DT_INT32"}, "value": {"tensor": {"dtype": "DT_INT32", "tensorShape": {}}}}}, {"name": "StatefulPartitionedCall/siren_morpher03/BatchGatherND/meshgrid/ones/Const", "op": "Const", "attr": {"dtype": {"type": "DT_INT32"}, "value": {"tensor": {"dtype": "DT_INT32", "tensorShape": {}}}}}, {"name": "StatefulPartitionedCall/siren_morpher03/BatchGatherND/transpose/perm", "op": "Const", "attr": {"dtype": {"type": "DT_INT32"}, "value": {"tensor": {"dtype": "DT_INT32", "tensorShape": {"dim": [{"size": "2"}]}}}}}, {"name": "StatefulPartitionedCall/siren_morpher03/BatchGatherND/strided_slice_3/stack", "op": "Const", "attr": {"dtype": {"type": "DT_INT32"}, "value": {"tensor": {"dtype": "DT_INT32", "tensorShape": {"dim": [{"size": "1"}]}}}}}, {"name": "StatefulPartitionedCall/siren_morpher03/BatchGatherND/strided_slice_3/stack_1", "op": "Const", "attr": {"dtype": {"type": "DT_INT32"}, "value": {"tensor": {"dtype": "DT_INT32", "tensorShape": {"dim": [{"size": "1"}]}}}}}, {"name": "StatefulPartitionedCall/siren_morpher03/BatchGatherND/strided_slice_3/stack_2", "op": "Const", "attr": {"dtype": {"type": "DT_INT32"}, "value": {"tensor": {"dtype": "DT_INT32", "tensorShape": {"dim": [{"size": "1"}]}}}}}, {"name": "StatefulPartitionedCall/siren_morpher03/BatchGatherND/concat/axis", "op": "Const", "attr": {"value": {"tensor": {"dtype": "DT_INT32", "tensorShape": {}}}, "dtype": {"type": "DT_INT32"}}}, {"name": "StatefulPartitionedCall/siren_morpher03/BatchGatherND/concat_1/values_0", "op": "Const", "attr": {"value": {"tensor": {"dtype": "DT_INT32", "tensorShape": {"dim": [{"size": "1"}]}}}, "dtype": {"type": "DT_INT32"}}}, {"name": "StatefulPartitionedCall/siren_morpher03/BatchGatherND/strided_slice_1/stack", "op": "Const", "attr": {"dtype": {"type": "DT_INT32"}, "value": {"tensor": {"dtype": "DT_INT32", "tensorShape": {"dim": [{"size": "1"}]}}}}}, {"name": "StatefulPartitionedCall/siren_morpher03/BatchGatherND/strided_slice_1/stack_1", "op": "Const", "attr": {"value": {"tensor": {"dtype": "DT_INT32", "tensorShape": {"dim": [{"size": "1"}]}}}, "dtype": {"type": "DT_INT32"}}}, {"name": "StatefulPartitionedCall/siren_morpher03/BatchGatherND/strided_slice_1/stack_2", "op": "Const", "attr": {"value": {"tensor": {"dtype": "DT_INT32", "tensorShape": {"dim": [{"size": "1"}]}}}, "dtype": {"type": "DT_INT32"}}}, {"name": "StatefulPartitionedCall/siren_morpher03/BatchGatherND/concat_1/values_2", "op": "Const", "attr": {"value": {"tensor": {"dtype": "DT_INT32", "tensorShape": {"dim": [{"size": "1"}]}}}, "dtype": {"type": "DT_INT32"}}}, {"name": "StatefulPartitionedCall/siren_morpher03/BatchGatherND/concat_1/axis", "op": "Const", "attr": {"value": {"tensor": {"dtype": "DT_INT32", "tensorShape": {}}}, "dtype": {"type": "DT_INT32"}}}, {"name": "StatefulPartitionedCall/siren_morpher03/BatchGatherND/strided_slice/stack", "op": "Const", "attr": {"dtype": {"type": "DT_INT32"}, "value": {"tensor": {"dtype": "DT_INT32", "tensorShape": {"dim": [{"size": "1"}]}}}}}, {"name": "StatefulPartitionedCall/siren_morpher03/BatchGatherND/strided_slice/stack_1", "op": "Const", "attr": {"dtype": {"type": "DT_INT32"}, "value": {"tensor": {"dtype": "DT_INT32", "tensorShape": {"dim": [{"size": "1"}]}}}}}, {"name": "StatefulPartitionedCall/siren_morpher03/BatchGatherND/strided_slice/stack_2", "op": "Const", "attr": {"dtype": {"type": "DT_INT32"}, "value": {"tensor": {"dtype": "DT_INT32", "tensorShape": {"dim": [{"size": "1"}]}}}}}, {"name": "StatefulPartitionedCall/siren_morpher03/BatchGatherND/Prod/reduction_indices", "op": "Const", "attr": {"dtype": {"type": "DT_INT32"}, "value": {"tensor": {"dtype": "DT_INT32", "tensorShape": {"dim": [{"size": "1"}]}}}}}, {"name": "StatefulPartitionedCall/siren_morpher03/BatchGatherND/strided_slice_4/stack", "op": "Const", "attr": {"value": {"tensor": {"dtype": "DT_INT32", "tensorShape": {"dim": [{"size": "1"}]}}}, "dtype": {"type": "DT_INT32"}}}, {"name": "StatefulPartitionedCall/siren_morpher03/BatchGatherND/strided_slice_4/stack_1", "op": "Const", "attr": {"dtype": {"type": "DT_INT32"}, "value": {"tensor": {"dtype": "DT_INT32", "tensorShape": {"dim": [{"size": "1"}]}}}}}, {"name": "StatefulPartitionedCall/siren_morpher03/BatchGatherND/strided_slice_4/stack_2", "op": "Const", "attr": {"dtype": {"type": "DT_INT32"}, "value": {"tensor": {"dtype": "DT_INT32", "tensorShape": {"dim": [{"size": "1"}]}}}}}, {"name": "StatefulPartitionedCall/siren_morpher03/BatchGatherND/concat_2/axis", "op": "Const", "attr": {"dtype": {"type": "DT_INT32"}, "value": {"tensor": {"dtype": "DT_INT32", "tensorShape": {}}}}}, {"name": "StatefulPartitionedCall/siren_morpher03/BatchGatherND/concat_3/axis", "op": "Const", "attr": {"dtype": {"type": "DT_INT32"}, "value": {"tensor": {"dtype": "DT_INT32", "tensorShape": {}}}}}, {"name": "StatefulPartitionedCall/siren_morpher03/BatchGatherND/strided_slice_5/stack", "op": "Const", "attr": {"dtype": {"type": "DT_INT32"}, "value": {"tensor": {"dtype": "DT_INT32", "tensorShape": {"dim": [{"size": "1"}]}}}}}, {"name": "StatefulPartitionedCall/siren_morpher03/BatchGatherND/strided_slice_5/stack_1", "op": "Const", "attr": {"value": {"tensor": {"dtype": "DT_INT32", "tensorShape": {"dim": [{"size": "1"}]}}}, "dtype": {"type": "DT_INT32"}}}, {"name": "StatefulPartitionedCall/siren_morpher03/BatchGatherND/strided_slice_5/stack_2", "op": "Const", "attr": {"value": {"tensor": {"dtype": "DT_INT32", "tensorShape": {"dim": [{"size": "1"}]}}}, "dtype": {"type": "DT_INT32"}}}, {"name": "StatefulPartitionedCall/siren_morpher03/BatchGatherND/concat_4/axis", "op": "Const", "attr": {"dtype": {"type": "DT_INT32"}, "value": {"tensor": {"dtype": "DT_INT32", "tensorShape": {}}}}}, {"name": "StatefulPartitionedCall/siren_morpher03/ExpandDims_6/dim", "op": "Const", "attr": {"dtype": {"type": "DT_INT32"}, "value": {"tensor": {"dtype": "DT_INT32", "tensorShape": {}}}}}, {"name": "StatefulPartitionedCall/siren_morpher03/BatchGatherND_1/strided_slice_2/stack", "op": "Const", "attr": {"value": {"tensor": {"dtype": "DT_INT32", "tensorShape": {"dim": [{"size": "1"}]}}}, "dtype": {"type": "DT_INT32"}}}, {"name": "StatefulPartitionedCall/siren_morpher03/BatchGatherND_1/strided_slice_2/stack_1", "op": "Const", "attr": {"value": {"tensor": {"dtype": "DT_INT32", "tensorShape": {"dim": [{"size": "1"}]}}}, "dtype": {"type": "DT_INT32"}}}, {"name": "StatefulPartitionedCall/siren_morpher03/BatchGatherND_1/strided_slice_2/stack_2", "op": "Const", "attr": {"dtype": {"type": "DT_INT32"}, "value": {"tensor": {"dtype": "DT_INT32", "tensorShape": {"dim": [{"size": "1"}]}}}}}, {"name": "StatefulPartitionedCall/siren_morpher03/BatchGatherND_1/ones", "op": "Const", "attr": {"value": {"tensor": {"dtype": "DT_INT32", "tensorShape": {"dim": [{"size": "2"}]}}}, "dtype": {"type": "DT_INT32"}}}, {"name": "StatefulPartitionedCall/siren_morpher03/BatchGatherND_1/Range/start", "op": "Const", "attr": {"dtype": {"type": "DT_INT32"}, "value": {"tensor": {"dtype": "DT_INT32", "tensorShape": {}}}}}, {"name": "StatefulPartitionedCall/siren_morpher03/BatchGatherND_1/Range/delta", "op": "Const", "attr": {"value": {"tensor": {"dtype": "DT_INT32", "tensorShape": {}}}, "dtype": {"type": "DT_INT32"}}}, {"name": "StatefulPartitionedCall/siren_morpher03/BatchGatherND_1/meshgrid/ones/Const", "op": "Const", "attr": {"dtype": {"type": "DT_INT32"}, "value": {"tensor": {"dtype": "DT_INT32", "tensorShape": {}}}}}, {"name": "StatefulPartitionedCall/siren_morpher03/BatchGatherND_1/transpose/perm", "op": "Const", "attr": {"value": {"tensor": {"dtype": "DT_INT32", "tensorShape": {"dim": [{"size": "2"}]}}}, "dtype": {"type": "DT_INT32"}}}, {"name": "StatefulPartitionedCall/siren_morpher03/BatchGatherND_1/strided_slice_3/stack", "op": "Const", "attr": {"dtype": {"type": "DT_INT32"}, "value": {"tensor": {"dtype": "DT_INT32", "tensorShape": {"dim": [{"size": "1"}]}}}}}, {"name": "StatefulPartitionedCall/siren_morpher03/BatchGatherND_1/strided_slice_3/stack_1", "op": "Const", "attr": {"value": {"tensor": {"dtype": "DT_INT32", "tensorShape": {"dim": [{"size": "1"}]}}}, "dtype": {"type": "DT_INT32"}}}, {"name": "StatefulPartitionedCall/siren_morpher03/BatchGatherND_1/strided_slice_3/stack_2", "op": "Const", "attr": {"value": {"tensor": {"dtype": "DT_INT32", "tensorShape": {"dim": [{"size": "1"}]}}}, "dtype": {"type": "DT_INT32"}}}, {"name": "StatefulPartitionedCall/siren_morpher03/BatchGatherND_1/concat/axis", "op": "Const", "attr": {"value": {"tensor": {"dtype": "DT_INT32", "tensorShape": {}}}, "dtype": {"type": "DT_INT32"}}}, {"name": "StatefulPartitionedCall/siren_morpher03/BatchGatherND_1/concat_1/values_0", "op": "Const", "attr": {"value": {"tensor": {"dtype": "DT_INT32", "tensorShape": {"dim": [{"size": "1"}]}}}, "dtype": {"type": "DT_INT32"}}}, {"name": "StatefulPartitionedCall/siren_morpher03/BatchGatherND_1/strided_slice_1/stack", "op": "Const", "attr": {"dtype": {"type": "DT_INT32"}, "value": {"tensor": {"dtype": "DT_INT32", "tensorShape": {"dim": [{"size": "1"}]}}}}}, {"name": "StatefulPartitionedCall/siren_morpher03/BatchGatherND_1/strided_slice_1/stack_1", "op": "Const", "attr": {"value": {"tensor": {"dtype": "DT_INT32", "tensorShape": {"dim": [{"size": "1"}]}}}, "dtype": {"type": "DT_INT32"}}}, {"name": "StatefulPartitionedCall/siren_morpher03/BatchGatherND_1/strided_slice_1/stack_2", "op": "Const", "attr": {"value": {"tensor": {"dtype": "DT_INT32", "tensorShape": {"dim": [{"size": "1"}]}}}, "dtype": {"type": "DT_INT32"}}}, {"name": "StatefulPartitionedCall/siren_morpher03/BatchGatherND_1/concat_1/values_2", "op": "Const", "attr": {"dtype": {"type": "DT_INT32"}, "value": {"tensor": {"dtype": "DT_INT32", "tensorShape": {"dim": [{"size": "1"}]}}}}}, {"name": "StatefulPartitionedCall/siren_morpher03/BatchGatherND_1/concat_1/axis", "op": "Const", "attr": {"value": {"tensor": {"dtype": "DT_INT32", "tensorShape": {}}}, "dtype": {"type": "DT_INT32"}}}, {"name": "StatefulPartitionedCall/siren_morpher03/BatchGatherND_1/strided_slice/stack", "op": "Const", "attr": {"value": {"tensor": {"dtype": "DT_INT32", "tensorShape": {"dim": [{"size": "1"}]}}}, "dtype": {"type": "DT_INT32"}}}, {"name": "StatefulPartitionedCall/siren_morpher03/BatchGatherND_1/strided_slice/stack_1", "op": "Const", "attr": {"value": {"tensor": {"dtype": "DT_INT32", "tensorShape": {"dim": [{"size": "1"}]}}}, "dtype": {"type": "DT_INT32"}}}, {"name": "StatefulPartitionedCall/siren_morpher03/BatchGatherND_1/strided_slice/stack_2", "op": "Const", "attr": {"dtype": {"type": "DT_INT32"}, "value": {"tensor": {"dtype": "DT_INT32", "tensorShape": {"dim": [{"size": "1"}]}}}}}, {"name": "StatefulPartitionedCall/siren_morpher03/BatchGatherND_1/Prod/reduction_indices", "op": "Const", "attr": {"value": {"tensor": {"dtype": "DT_INT32", "tensorShape": {"dim": [{"size": "1"}]}}}, "dtype": {"type": "DT_INT32"}}}, {"name": "StatefulPartitionedCall/siren_morpher03/BatchGatherND_1/strided_slice_4/stack", "op": "Const", "attr": {"value": {"tensor": {"dtype": "DT_INT32", "tensorShape": {"dim": [{"size": "1"}]}}}, "dtype": {"type": "DT_INT32"}}}, {"name": "StatefulPartitionedCall/siren_morpher03/BatchGatherND_1/strided_slice_4/stack_1", "op": "Const", "attr": {"dtype": {"type": "DT_INT32"}, "value": {"tensor": {"dtype": "DT_INT32", "tensorShape": {"dim": [{"size": "1"}]}}}}}, {"name": "StatefulPartitionedCall/siren_morpher03/BatchGatherND_1/strided_slice_4/stack_2", "op": "Const", "attr": {"dtype": {"type": "DT_INT32"}, "value": {"tensor": {"dtype": "DT_INT32", "tensorShape": {"dim": [{"size": "1"}]}}}}}, {"name": "StatefulPartitionedCall/siren_morpher03/BatchGatherND_1/concat_2/axis", "op": "Const", "attr": {"value": {"tensor": {"dtype": "DT_INT32", "tensorShape": {}}}, "dtype": {"type": "DT_INT32"}}}, {"name": "StatefulPartitionedCall/siren_morpher03/BatchGatherND_1/concat_3/axis", "op": "Const", "attr": {"value": {"tensor": {"dtype": "DT_INT32", "tensorShape": {}}}, "dtype": {"type": "DT_INT32"}}}, {"name": "StatefulPartitionedCall/siren_morpher03/BatchGatherND_1/strided_slice_5/stack", "op": "Const", "attr": {"value": {"tensor": {"dtype": "DT_INT32", "tensorShape": {"dim": [{"size": "1"}]}}}, "dtype": {"type": "DT_INT32"}}}, {"name": "StatefulPartitionedCall/siren_morpher03/BatchGatherND_1/strided_slice_5/stack_1", "op": "Const", "attr": {"dtype": {"type": "DT_INT32"}, "value": {"tensor": {"dtype": "DT_INT32", "tensorShape": {"dim": [{"size": "1"}]}}}}}, {"name": "StatefulPartitionedCall/siren_morpher03/BatchGatherND_1/strided_slice_5/stack_2", "op": "Const", "attr": {"dtype": {"type": "DT_INT32"}, "value": {"tensor": {"dtype": "DT_INT32", "tensorShape": {"dim": [{"size": "1"}]}}}}}, {"name": "StatefulPartitionedCall/siren_morpher03/BatchGatherND_1/concat_4/axis", "op": "Const", "attr": {"dtype": {"type": "DT_INT32"}, "value": {"tensor": {"dtype": "DT_INT32", "tensorShape": {}}}}}, {"name": "StatefulPartitionedCall/siren_morpher03/ExpandDims_7/dim", "op": "Const", "attr": {"dtype": {"type": "DT_INT32"}, "value": {"tensor": {"dtype": "DT_INT32", "tensorShape": {}}}}}, {"name": "StatefulPartitionedCall/siren_morpher03/BatchGatherND_2/strided_slice_2/stack", "op": "Const", "attr": {"value": {"tensor": {"dtype": "DT_INT32", "tensorShape": {"dim": [{"size": "1"}]}}}, "dtype": {"type": "DT_INT32"}}}, {"name": "StatefulPartitionedCall/siren_morpher03/BatchGatherND_2/strided_slice_2/stack_1", "op": "Const", "attr": {"value": {"tensor": {"dtype": "DT_INT32", "tensorShape": {"dim": [{"size": "1"}]}}}, "dtype": {"type": "DT_INT32"}}}, {"name": "StatefulPartitionedCall/siren_morpher03/BatchGatherND_2/strided_slice_2/stack_2", "op": "Const", "attr": {"dtype": {"type": "DT_INT32"}, "value": {"tensor": {"dtype": "DT_INT32", "tensorShape": {"dim": [{"size": "1"}]}}}}}, {"name": "StatefulPartitionedCall/siren_morpher03/BatchGatherND_2/ones", "op": "Const", "attr": {"value": {"tensor": {"dtype": "DT_INT32", "tensorShape": {"dim": [{"size": "2"}]}}}, "dtype": {"type": "DT_INT32"}}}, {"name": "StatefulPartitionedCall/siren_morpher03/BatchGatherND_2/Range/start", "op": "Const", "attr": {"value": {"tensor": {"dtype": "DT_INT32", "tensorShape": {}}}, "dtype": {"type": "DT_INT32"}}}, {"name": "StatefulPartitionedCall/siren_morpher03/BatchGatherND_2/Range/delta", "op": "Const", "attr": {"value": {"tensor": {"dtype": "DT_INT32", "tensorShape": {}}}, "dtype": {"type": "DT_INT32"}}}, {"name": "StatefulPartitionedCall/siren_morpher03/BatchGatherND_2/meshgrid/ones/Const", "op": "Const", "attr": {"dtype": {"type": "DT_INT32"}, "value": {"tensor": {"dtype": "DT_INT32", "tensorShape": {}}}}}, {"name": "StatefulPartitionedCall/siren_morpher03/BatchGatherND_2/transpose/perm", "op": "Const", "attr": {"dtype": {"type": "DT_INT32"}, "value": {"tensor": {"dtype": "DT_INT32", "tensorShape": {"dim": [{"size": "2"}]}}}}}, {"name": "StatefulPartitionedCall/siren_morpher03/BatchGatherND_2/strided_slice_3/stack", "op": "Const", "attr": {"value": {"tensor": {"dtype": "DT_INT32", "tensorShape": {"dim": [{"size": "1"}]}}}, "dtype": {"type": "DT_INT32"}}}, {"name": "StatefulPartitionedCall/siren_morpher03/BatchGatherND_2/strided_slice_3/stack_1", "op": "Const", "attr": {"value": {"tensor": {"dtype": "DT_INT32", "tensorShape": {"dim": [{"size": "1"}]}}}, "dtype": {"type": "DT_INT32"}}}, {"name": "StatefulPartitionedCall/siren_morpher03/BatchGatherND_2/strided_slice_3/stack_2", "op": "Const", "attr": {"dtype": {"type": "DT_INT32"}, "value": {"tensor": {"dtype": "DT_INT32", "tensorShape": {"dim": [{"size": "1"}]}}}}}, {"name": "StatefulPartitionedCall/siren_morpher03/BatchGatherND_2/concat/axis", "op": "Const", "attr": {"value": {"tensor": {"dtype": "DT_INT32", "tensorShape": {}}}, "dtype": {"type": "DT_INT32"}}}, {"name": "StatefulPartitionedCall/siren_morpher03/BatchGatherND_2/concat_1/values_0", "op": "Const", "attr": {"dtype": {"type": "DT_INT32"}, "value": {"tensor": {"dtype": "DT_INT32", "tensorShape": {"dim": [{"size": "1"}]}}}}}, {"name": "StatefulPartitionedCall/siren_morpher03/BatchGatherND_2/strided_slice_1/stack", "op": "Const", "attr": {"dtype": {"type": "DT_INT32"}, "value": {"tensor": {"dtype": "DT_INT32", "tensorShape": {"dim": [{"size": "1"}]}}}}}, {"name": "StatefulPartitionedCall/siren_morpher03/BatchGatherND_2/strided_slice_1/stack_1", "op": "Const", "attr": {"value": {"tensor": {"dtype": "DT_INT32", "tensorShape": {"dim": [{"size": "1"}]}}}, "dtype": {"type": "DT_INT32"}}}, {"name": "StatefulPartitionedCall/siren_morpher03/BatchGatherND_2/strided_slice_1/stack_2", "op": "Const", "attr": {"value": {"tensor": {"dtype": "DT_INT32", "tensorShape": {"dim": [{"size": "1"}]}}}, "dtype": {"type": "DT_INT32"}}}, {"name": "StatefulPartitionedCall/siren_morpher03/BatchGatherND_2/concat_1/values_2", "op": "Const", "attr": {"value": {"tensor": {"dtype": "DT_INT32", "tensorShape": {"dim": [{"size": "1"}]}}}, "dtype": {"type": "DT_INT32"}}}, {"name": "StatefulPartitionedCall/siren_morpher03/BatchGatherND_2/concat_1/axis", "op": "Const", "attr": {"value": {"tensor": {"dtype": "DT_INT32", "tensorShape": {}}}, "dtype": {"type": "DT_INT32"}}}, {"name": "StatefulPartitionedCall/siren_morpher03/BatchGatherND_2/strided_slice/stack", "op": "Const", "attr": {"dtype": {"type": "DT_INT32"}, "value": {"tensor": {"dtype": "DT_INT32", "tensorShape": {"dim": [{"size": "1"}]}}}}}, {"name": "StatefulPartitionedCall/siren_morpher03/BatchGatherND_2/strided_slice/stack_1", "op": "Const", "attr": {"value": {"tensor": {"dtype": "DT_INT32", "tensorShape": {"dim": [{"size": "1"}]}}}, "dtype": {"type": "DT_INT32"}}}, {"name": "StatefulPartitionedCall/siren_morpher03/BatchGatherND_2/strided_slice/stack_2", "op": "Const", "attr": {"value": {"tensor": {"dtype": "DT_INT32", "tensorShape": {"dim": [{"size": "1"}]}}}, "dtype": {"type": "DT_INT32"}}}, {"name": "StatefulPartitionedCall/siren_morpher03/BatchGatherND_2/Prod/reduction_indices", "op": "Const", "attr": {"dtype": {"type": "DT_INT32"}, "value": {"tensor": {"dtype": "DT_INT32", "tensorShape": {"dim": [{"size": "1"}]}}}}}, {"name": "StatefulPartitionedCall/siren_morpher03/BatchGatherND_2/strided_slice_4/stack", "op": "Const", "attr": {"value": {"tensor": {"dtype": "DT_INT32", "tensorShape": {"dim": [{"size": "1"}]}}}, "dtype": {"type": "DT_INT32"}}}, {"name": "StatefulPartitionedCall/siren_morpher03/BatchGatherND_2/strided_slice_4/stack_1", "op": "Const", "attr": {"value": {"tensor": {"dtype": "DT_INT32", "tensorShape": {"dim": [{"size": "1"}]}}}, "dtype": {"type": "DT_INT32"}}}, {"name": "StatefulPartitionedCall/siren_morpher03/BatchGatherND_2/strided_slice_4/stack_2", "op": "Const", "attr": {"value": {"tensor": {"dtype": "DT_INT32", "tensorShape": {"dim": [{"size": "1"}]}}}, "dtype": {"type": "DT_INT32"}}}, {"name": "StatefulPartitionedCall/siren_morpher03/BatchGatherND_2/concat_2/axis", "op": "Const", "attr": {"value": {"tensor": {"dtype": "DT_INT32", "tensorShape": {}}}, "dtype": {"type": "DT_INT32"}}}, {"name": "StatefulPartitionedCall/siren_morpher03/BatchGatherND_2/concat_3/axis", "op": "Const", "attr": {"dtype": {"type": "DT_INT32"}, "value": {"tensor": {"dtype": "DT_INT32", "tensorShape": {}}}}}, {"name": "StatefulPartitionedCall/siren_morpher03/BatchGatherND_2/strided_slice_5/stack", "op": "Const", "attr": {"dtype": {"type": "DT_INT32"}, "value": {"tensor": {"dtype": "DT_INT32", "tensorShape": {"dim": [{"size": "1"}]}}}}}, {"name": "StatefulPartitionedCall/siren_morpher03/BatchGatherND_2/strided_slice_5/stack_1", "op": "Const", "attr": {"dtype": {"type": "DT_INT32"}, "value": {"tensor": {"dtype": "DT_INT32", "tensorShape": {"dim": [{"size": "1"}]}}}}}, {"name": "StatefulPartitionedCall/siren_morpher03/BatchGatherND_2/strided_slice_5/stack_2", "op": "Const", "attr": {"dtype": {"type": "DT_INT32"}, "value": {"tensor": {"dtype": "DT_INT32", "tensorShape": {"dim": [{"size": "1"}]}}}}}, {"name": "StatefulPartitionedCall/siren_morpher03/BatchGatherND_2/concat_4/axis", "op": "Const", "attr": {"dtype": {"type": "DT_INT32"}, "value": {"tensor": {"dtype": "DT_INT32", "tensorShape": {}}}}}, {"name": "StatefulPartitionedCall/siren_morpher03/clip_by_value/Minimum/y", "op": "Const", "attr": {"value": {"tensor": {"dtype": "DT_FLOAT", "tensorShape": {}}}, "dtype": {"type": "DT_FLOAT"}}}, {"name": "StatefulPartitionedCall/siren_morpher03/clip_by_value/y", "op": "Const", "attr": {"value": {"tensor": {"dtype": "DT_FLOAT", "tensorShape": {}}}, "dtype": {"type": "DT_FLOAT"}}}, {"name": "StatefulPartitionedCall/siren_morpher03/clip_by_value_4/Minimum/y", "op": "Const", "attr": {"value": {"tensor": {"dtype": "DT_FLOAT", "tensorShape": {}}}, "dtype": {"type": "DT_FLOAT"}}}, {"name": "StatefulPartitionedCall/siren_morpher03/clip_by_value_4/y", "op": "Const", "attr": {"value": {"tensor": {"dtype": "DT_FLOAT", "tensorShape": {}}}, "dtype": {"type": "DT_FLOAT"}}}, {"name": "StatefulPartitionedCall/siren_morpher03/clip_by_value_2/Minimum/y", "op": "Const", "attr": {"dtype": {"type": "DT_FLOAT"}, "value": {"tensor": {"dtype": "DT_FLOAT", "tensorShape": {}}}}}, {"name": "StatefulPartitionedCall/siren_morpher03/clip_by_value_2/y", "op": "Const", "attr": {"dtype": {"type": "DT_FLOAT"}, "value": {"tensor": {"dtype": "DT_FLOAT", "tensorShape": {}}}}}, {"name": "StatefulPartitionedCall/siren_morpher03/clip_by_value_6/Minimum/y", "op": "Const", "attr": {"dtype": {"type": "DT_FLOAT"}, "value": {"tensor": {"dtype": "DT_FLOAT", "tensorShape": {}}}}}, {"name": "StatefulPartitionedCall/siren_morpher03/clip_by_value_6/y", "op": "Const", "attr": {"dtype": {"type": "DT_FLOAT"}, "value": {"tensor": {"dtype": "DT_FLOAT", "tensorShape": {}}}}}, {"name": "StatefulPartitionedCall/siren_morpher03/ExpandDims_8/dim", "op": "Const", "attr": {"value": {"tensor": {"dtype": "DT_INT32", "tensorShape": {}}}, "dtype": {"type": "DT_INT32"}}}, {"name": "StatefulPartitionedCall/siren_morpher03/BatchGatherND_3/strided_slice_2/stack", "op": "Const", "attr": {"value": {"tensor": {"dtype": "DT_INT32", "tensorShape": {"dim": [{"size": "1"}]}}}, "dtype": {"type": "DT_INT32"}}}, {"name": "StatefulPartitionedCall/siren_morpher03/BatchGatherND_3/strided_slice_2/stack_1", "op": "Const", "attr": {"value": {"tensor": {"dtype": "DT_INT32", "tensorShape": {"dim": [{"size": "1"}]}}}, "dtype": {"type": "DT_INT32"}}}, {"name": "StatefulPartitionedCall/siren_morpher03/BatchGatherND_3/strided_slice_2/stack_2", "op": "Const", "attr": {"dtype": {"type": "DT_INT32"}, "value": {"tensor": {"dtype": "DT_INT32", "tensorShape": {"dim": [{"size": "1"}]}}}}}, {"name": "StatefulPartitionedCall/siren_morpher03/BatchGatherND_3/ones", "op": "Const", "attr": {"dtype": {"type": "DT_INT32"}, "value": {"tensor": {"dtype": "DT_INT32", "tensorShape": {"dim": [{"size": "2"}]}}}}}, {"name": "StatefulPartitionedCall/siren_morpher03/BatchGatherND_3/Range/start", "op": "Const", "attr": {"dtype": {"type": "DT_INT32"}, "value": {"tensor": {"dtype": "DT_INT32", "tensorShape": {}}}}}, {"name": "StatefulPartitionedCall/siren_morpher03/BatchGatherND_3/Range/delta", "op": "Const", "attr": {"dtype": {"type": "DT_INT32"}, "value": {"tensor": {"dtype": "DT_INT32", "tensorShape": {}}}}}, {"name": "StatefulPartitionedCall/siren_morpher03/BatchGatherND_3/meshgrid/ones/Const", "op": "Const", "attr": {"dtype": {"type": "DT_INT32"}, "value": {"tensor": {"dtype": "DT_INT32", "tensorShape": {}}}}}, {"name": "StatefulPartitionedCall/siren_morpher03/BatchGatherND_3/transpose/perm", "op": "Const", "attr": {"dtype": {"type": "DT_INT32"}, "value": {"tensor": {"dtype": "DT_INT32", "tensorShape": {"dim": [{"size": "2"}]}}}}}, {"name": "StatefulPartitionedCall/siren_morpher03/BatchGatherND_3/strided_slice_3/stack", "op": "Const", "attr": {"dtype": {"type": "DT_INT32"}, "value": {"tensor": {"dtype": "DT_INT32", "tensorShape": {"dim": [{"size": "1"}]}}}}}, {"name": "StatefulPartitionedCall/siren_morpher03/BatchGatherND_3/strided_slice_3/stack_1", "op": "Const", "attr": {"dtype": {"type": "DT_INT32"}, "value": {"tensor": {"dtype": "DT_INT32", "tensorShape": {"dim": [{"size": "1"}]}}}}}, {"name": "StatefulPartitionedCall/siren_morpher03/BatchGatherND_3/strided_slice_3/stack_2", "op": "Const", "attr": {"dtype": {"type": "DT_INT32"}, "value": {"tensor": {"dtype": "DT_INT32", "tensorShape": {"dim": [{"size": "1"}]}}}}}, {"name": "StatefulPartitionedCall/siren_morpher03/BatchGatherND_3/concat/axis", "op": "Const", "attr": {"dtype": {"type": "DT_INT32"}, "value": {"tensor": {"dtype": "DT_INT32", "tensorShape": {}}}}}, {"name": "StatefulPartitionedCall/siren_morpher03/BatchGatherND_3/concat_1/values_0", "op": "Const", "attr": {"value": {"tensor": {"dtype": "DT_INT32", "tensorShape": {"dim": [{"size": "1"}]}}}, "dtype": {"type": "DT_INT32"}}}, {"name": "StatefulPartitionedCall/siren_morpher03/BatchGatherND_3/strided_slice_1/stack", "op": "Const", "attr": {"value": {"tensor": {"dtype": "DT_INT32", "tensorShape": {"dim": [{"size": "1"}]}}}, "dtype": {"type": "DT_INT32"}}}, {"name": "StatefulPartitionedCall/siren_morpher03/BatchGatherND_3/strided_slice_1/stack_1", "op": "Const", "attr": {"value": {"tensor": {"dtype": "DT_INT32", "tensorShape": {"dim": [{"size": "1"}]}}}, "dtype": {"type": "DT_INT32"}}}, {"name": "StatefulPartitionedCall/siren_morpher03/BatchGatherND_3/strided_slice_1/stack_2", "op": "Const", "attr": {"dtype": {"type": "DT_INT32"}, "value": {"tensor": {"dtype": "DT_INT32", "tensorShape": {"dim": [{"size": "1"}]}}}}}, {"name": "StatefulPartitionedCall/siren_morpher03/BatchGatherND_3/concat_1/values_2", "op": "Const", "attr": {"dtype": {"type": "DT_INT32"}, "value": {"tensor": {"dtype": "DT_INT32", "tensorShape": {"dim": [{"size": "1"}]}}}}}, {"name": "StatefulPartitionedCall/siren_morpher03/BatchGatherND_3/concat_1/axis", "op": "Const", "attr": {"dtype": {"type": "DT_INT32"}, "value": {"tensor": {"dtype": "DT_INT32", "tensorShape": {}}}}}, {"name": "StatefulPartitionedCall/siren_morpher03/BatchGatherND_3/strided_slice/stack", "op": "Const", "attr": {"value": {"tensor": {"dtype": "DT_INT32", "tensorShape": {"dim": [{"size": "1"}]}}}, "dtype": {"type": "DT_INT32"}}}, {"name": "StatefulPartitionedCall/siren_morpher03/BatchGatherND_3/strided_slice/stack_1", "op": "Const", "attr": {"value": {"tensor": {"dtype": "DT_INT32", "tensorShape": {"dim": [{"size": "1"}]}}}, "dtype": {"type": "DT_INT32"}}}, {"name": "StatefulPartitionedCall/siren_morpher03/BatchGatherND_3/strided_slice/stack_2", "op": "Const", "attr": {"dtype": {"type": "DT_INT32"}, "value": {"tensor": {"dtype": "DT_INT32", "tensorShape": {"dim": [{"size": "1"}]}}}}}, {"name": "StatefulPartitionedCall/siren_morpher03/BatchGatherND_3/Prod/reduction_indices", "op": "Const", "attr": {"dtype": {"type": "DT_INT32"}, "value": {"tensor": {"dtype": "DT_INT32", "tensorShape": {"dim": [{"size": "1"}]}}}}}, {"name": "StatefulPartitionedCall/siren_morpher03/strided_slice_12/stack", "op": "Const", "attr": {"dtype": {"type": "DT_INT32"}, "value": {"tensor": {"dtype": "DT_INT32", "tensorShape": {"dim": [{"size": "2"}]}}}}}, {"name": "StatefulPartitionedCall/siren_morpher03/strided_slice_12/stack_1", "op": "Const", "attr": {"dtype": {"type": "DT_INT32"}, "value": {"tensor": {"dtype": "DT_INT32", "tensorShape": {"dim": [{"size": "2"}]}}}}}, {"name": "StatefulPartitionedCall/siren_morpher03/strided_slice_12/stack_2", "op": "Const", "attr": {"value": {"tensor": {"dtype": "DT_INT32", "tensorShape": {"dim": [{"size": "2"}]}}}, "dtype": {"type": "DT_INT32"}}}, {"name": "StatefulPartitionedCall/siren_morpher03/add_2/y", "op": "Const", "attr": {"value": {"tensor": {"dtype": "DT_FLOAT", "tensorShape": {}}}, "dtype": {"type": "DT_FLOAT"}}}, {"name": "StatefulPartitionedCall/siren_morpher03/Cast_1", "op": "Const", "attr": {"value": {"tensor": {"dtype": "DT_FLOAT", "tensorShape": {}}}, "dtype": {"type": "DT_FLOAT"}}}, {"name": "StatefulPartitionedCall/siren_morpher03/sub_1/y", "op": "Const", "attr": {"value": {"tensor": {"dtype": "DT_FLOAT", "tensorShape": {}}}, "dtype": {"type": "DT_FLOAT"}}}, {"name": "StatefulPartitionedCall/siren_morpher03/mul_3/y", "op": "Const", "attr": {"dtype": {"type": "DT_FLOAT"}, "value": {"tensor": {"dtype": "DT_FLOAT", "tensorShape": {}}}}}, {"name": "StatefulPartitionedCall/siren_morpher03/add_4/y", "op": "Const", "attr": {"value": {"tensor": {"dtype": "DT_FLOAT", "tensorShape": {}}}, "dtype": {"type": "DT_FLOAT"}}}, {"name": "StatefulPartitionedCall/siren_morpher03/clip_by_value_3/Minimum/y", "op": "Const", "attr": {"dtype": {"type": "DT_FLOAT"}, "value": {"tensor": {"dtype": "DT_FLOAT", "tensorShape": {}}}}}, {"name": "StatefulPartitionedCall/siren_morpher03/clip_by_value_3/y", "op": "Const", "attr": {"dtype": {"type": "DT_FLOAT"}, "value": {"tensor": {"dtype": "DT_FLOAT", "tensorShape": {}}}}}, {"name": "StatefulPartitionedCall/siren_morpher03/clip_by_value_7/Minimum/y", "op": "Const", "attr": {"dtype": {"type": "DT_FLOAT"}, "value": {"tensor": {"dtype": "DT_FLOAT", "tensorShape": {}}}}}, {"name": "StatefulPartitionedCall/siren_morpher03/clip_by_value_7/y", "op": "Const", "attr": {"dtype": {"type": "DT_FLOAT"}, "value": {"tensor": {"dtype": "DT_FLOAT", "tensorShape": {}}}}}, {"name": "StatefulPartitionedCall/siren_morpher03/ExpandDims_4", "op": "Const", "attr": {"value": {"tensor": {"dtype": "DT_FLOAT", "tensorShape": {"dim": [{"size": "1"}, {"size": "512"}, {"size": "512"}, {"size": "3"}]}}}, "dtype": {"type": "DT_FLOAT"}}}, {"name": "StatefulPartitionedCall/siren_morpher03/Tile_10/multiples/1", "op": "Const", "attr": {"dtype": {"type": "DT_INT32"}, "value": {"tensor": {"dtype": "DT_INT32", "tensorShape": {}}}}}, {"name": "StatefulPartitionedCall/siren_morpher03/Tile_10/multiples/2", "op": "Const", "attr": {"value": {"tensor": {"dtype": "DT_INT32", "tensorShape": {}}}, "dtype": {"type": "DT_INT32"}}}, {"name": "StatefulPartitionedCall/siren_morpher03/Tile_10/multiples/3", "op": "Const", "attr": {"value": {"tensor": {"dtype": "DT_INT32", "tensorShape": {}}}, "dtype": {"type": "DT_INT32"}}}, {"name": "StatefulPartitionedCall/siren_morpher03/Reshape_9/shape/1", "op": "Const", "attr": {"value": {"tensor": {"dtype": "DT_INT32", "tensorShape": {}}}, "dtype": {"type": "DT_INT32"}}}, {"name": "StatefulPartitionedCall/siren_morpher03/Reshape_9/shape/2", "op": "Const", "attr": {"value": {"tensor": {"dtype": "DT_INT32", "tensorShape": {}}}, "dtype": {"type": "DT_INT32"}}}, {"name": "StatefulPartitionedCall/siren_morpher03/ExpandDims_3", "op": "Const", "attr": {"value": {"tensor": {"dtype": "DT_FLOAT", "tensorShape": {"dim": [{"size": "1"}, {"size": "2"}, {"size": "3"}]}}}, "dtype": {"type": "DT_FLOAT"}}}, {"name": "StatefulPartitionedCall/siren_morpher03/Tile_9/multiples/1", "op": "Const", "attr": {"value": {"tensor": {"dtype": "DT_INT32", "tensorShape": {}}}, "dtype": {"type": "DT_INT32"}}}, {"name": "StatefulPartitionedCall/siren_morpher03/Tile_9/multiples/2", "op": "Const", "attr": {"value": {"tensor": {"dtype": "DT_INT32", "tensorShape": {}}}, "dtype": {"type": "DT_INT32"}}}, {"name": "StatefulPartitionedCall/siren_morpher03/strided_slice_10/stack", "op": "Const", "attr": {"value": {"tensor": {"dtype": "DT_INT32", "tensorShape": {"dim": [{"size": "1"}]}}}, "dtype": {"type": "DT_INT32"}}}, {"name": "StatefulPartitionedCall/siren_morpher03/strided_slice_10/stack_1", "op": "Const", "attr": {"value": {"tensor": {"dtype": "DT_INT32", "tensorShape": {"dim": [{"size": "1"}]}}}, "dtype": {"type": "DT_INT32"}}}, {"name": "StatefulPartitionedCall/siren_morpher03/strided_slice_10/stack_2", "op": "Const", "attr": {"dtype": {"type": "DT_INT32"}, "value": {"tensor": {"dtype": "DT_INT32", "tensorShape": {"dim": [{"size": "1"}]}}}}}, {"name": "StatefulPartitionedCall/siren_morpher03/Reshape_10/shape/1", "op": "Const", "attr": {"value": {"tensor": {"dtype": "DT_INT32", "tensorShape": {}}}, "dtype": {"type": "DT_INT32"}}}, {"name": "StatefulPartitionedCall/siren_morpher03/Reshape_10/shape/2", "op": "Const", "attr": {"value": {"tensor": {"dtype": "DT_INT32", "tensorShape": {}}}, "dtype": {"type": "DT_INT32"}}}, {"name": "StatefulPartitionedCall/siren_morpher03/Reshape_10/shape/3", "op": "Const", "attr": {"value": {"tensor": {"dtype": "DT_INT32", "tensorShape": {}}}, "dtype": {"type": "DT_INT32"}}}, {"name": "StatefulPartitionedCall/siren_morpher03/strided_slice_11/stack", "op": "Const", "attr": {"value": {"tensor": {"dtype": "DT_INT32", "tensorShape": {"dim": [{"size": "2"}]}}}, "dtype": {"type": "DT_INT32"}}}, {"name": "StatefulPartitionedCall/siren_morpher03/strided_slice_11/stack_1", "op": "Const", "attr": {"dtype": {"type": "DT_INT32"}, "value": {"tensor": {"dtype": "DT_INT32", "tensorShape": {"dim": [{"size": "2"}]}}}}}, {"name": "StatefulPartitionedCall/siren_morpher03/strided_slice_11/stack_2", "op": "Const", "attr": {"dtype": {"type": "DT_INT32"}, "value": {"tensor": {"dtype": "DT_INT32", "tensorShape": {"dim": [{"size": "2"}]}}}}}, {"name": "StatefulPartitionedCall/siren_morpher03/add_1/y", "op": "Const", "attr": {"value": {"tensor": {"dtype": "DT_FLOAT", "tensorShape": {}}}, "dtype": {"type": "DT_FLOAT"}}}, {"name": "StatefulPartitionedCall/siren_morpher03/Cast", "op": "Const", "attr": {"value": {"tensor": {"dtype": "DT_FLOAT", "tensorShape": {}}}, "dtype": {"type": "DT_FLOAT"}}}, {"name": "StatefulPartitionedCall/siren_morpher03/sub/y", "op": "Const", "attr": {"value": {"tensor": {"dtype": "DT_FLOAT", "tensorShape": {}}}, "dtype": {"type": "DT_FLOAT"}}}, {"name": "StatefulPartitionedCall/siren_morpher03/mul_1/y", "op": "Const", "attr": {"value": {"tensor": {"dtype": "DT_FLOAT", "tensorShape": {}}}, "dtype": {"type": "DT_FLOAT"}}}, {"name": "StatefulPartitionedCall/siren_morpher03/add_3/y", "op": "Const", "attr": {"dtype": {"type": "DT_FLOAT"}, "value": {"tensor": {"dtype": "DT_FLOAT", "tensorShape": {}}}}}, {"name": "StatefulPartitionedCall/siren_morpher03/clip_by_value_1/Minimum/y", "op": "Const", "attr": {"value": {"tensor": {"dtype": "DT_FLOAT", "tensorShape": {}}}, "dtype": {"type": "DT_FLOAT"}}}, {"name": "StatefulPartitionedCall/siren_morpher03/clip_by_value_1/y", "op": "Const", "attr": {"value": {"tensor": {"dtype": "DT_FLOAT", "tensorShape": {}}}, "dtype": {"type": "DT_FLOAT"}}}, {"name": "StatefulPartitionedCall/siren_morpher03/clip_by_value_5/Minimum/y", "op": "Const", "attr": {"dtype": {"type": "DT_FLOAT"}, "value": {"tensor": {"dtype": "DT_FLOAT", "tensorShape": {}}}}}, {"name": "StatefulPartitionedCall/siren_morpher03/clip_by_value_5/y", "op": "Const", "attr": {"dtype": {"type": "DT_FLOAT"}, "value": {"tensor": {"dtype": "DT_FLOAT", "tensorShape": {}}}}}, {"name": "StatefulPartitionedCall/siren_morpher03/BatchGatherND_3/strided_slice_4/stack", "op": "Const", "attr": {"value": {"tensor": {"dtype": "DT_INT32", "tensorShape": {"dim": [{"size": "1"}]}}}, "dtype": {"type": "DT_INT32"}}}, {"name": "StatefulPartitionedCall/siren_morpher03/BatchGatherND_3/strided_slice_4/stack_1", "op": "Const", "attr": {"dtype": {"type": "DT_INT32"}, "value": {"tensor": {"dtype": "DT_INT32", "tensorShape": {"dim": [{"size": "1"}]}}}}}, {"name": "StatefulPartitionedCall/siren_morpher03/BatchGatherND_3/strided_slice_4/stack_2", "op": "Const", "attr": {"dtype": {"type": "DT_INT32"}, "value": {"tensor": {"dtype": "DT_INT32", "tensorShape": {"dim": [{"size": "1"}]}}}}}, {"name": "StatefulPartitionedCall/siren_morpher03/BatchGatherND_3/concat_2/axis", "op": "Const", "attr": {"value": {"tensor": {"dtype": "DT_INT32", "tensorShape": {}}}, "dtype": {"type": "DT_INT32"}}}, {"name": "StatefulPartitionedCall/siren_morpher03/BatchGatherND_3/concat_3/axis", "op": "Const", "attr": {"value": {"tensor": {"dtype": "DT_INT32", "tensorShape": {}}}, "dtype": {"type": "DT_INT32"}}}, {"name": "StatefulPartitionedCall/siren_morpher03/BatchGatherND_3/strided_slice_5/stack", "op": "Const", "attr": {"value": {"tensor": {"dtype": "DT_INT32", "tensorShape": {"dim": [{"size": "1"}]}}}, "dtype": {"type": "DT_INT32"}}}, {"name": "StatefulPartitionedCall/siren_morpher03/BatchGatherND_3/strided_slice_5/stack_1", "op": "Const", "attr": {"value": {"tensor": {"dtype": "DT_INT32", "tensorShape": {"dim": [{"size": "1"}]}}}, "dtype": {"type": "DT_INT32"}}}, {"name": "StatefulPartitionedCall/siren_morpher03/BatchGatherND_3/strided_slice_5/stack_2", "op": "Const", "attr": {"value": {"tensor": {"dtype": "DT_INT32", "tensorShape": {"dim": [{"size": "1"}]}}}, "dtype": {"type": "DT_INT32"}}}, {"name": "StatefulPartitionedCall/siren_morpher03/BatchGatherND_3/concat_4/axis", "op": "Const", "attr": {"dtype": {"type": "DT_INT32"}, "value": {"tensor": {"dtype": "DT_INT32", "tensorShape": {}}}}}, {"name": "StatefulPartitionedCall/siren_morpher03/sequential_2/siren_layers.2.2/mul/x", "op": "Const", "attr": {"dtype": {"type": "DT_FLOAT"}, "value": {"tensor": {"dtype": "DT_FLOAT", "tensorShape": {}}}}}, {"name": "StatefulPartitionedCall/siren_morpher03/sequential_2/siren_layers.2.1/mul/x", "op": "Const", "attr": {"dtype": {"type": "DT_FLOAT"}, "value": {"tensor": {"dtype": "DT_FLOAT", "tensorShape": {}}}}}, {"name": "StatefulPartitionedCall/siren_morpher03/sequential_2/siren_layers.2.0/mul/x", "op": "Const", "attr": {"dtype": {"type": "DT_FLOAT"}, "value": {"tensor": {"dtype": "DT_FLOAT", "tensorShape": {}}}}}, {"name": "StatefulPartitionedCall/siren_morpher03/sequential_1/siren_layers.1.2/mul/x", "op": "Const", "attr": {"value": {"tensor": {"dtype": "DT_FLOAT", "tensorShape": {}}}, "dtype": {"type": "DT_FLOAT"}}}, {"name": "StatefulPartitionedCall/siren_morpher03/sequential_1/siren_layers.1.1/mul/x", "op": "Const", "attr": {"dtype": {"type": "DT_FLOAT"}, "value": {"tensor": {"dtype": "DT_FLOAT", "tensorShape": {}}}}}, {"name": "StatefulPartitionedCall/siren_morpher03/sequential_1/siren_layers.1.0/mul/x", "op": "Const", "attr": {"value": {"tensor": {"dtype": "DT_FLOAT", "tensorShape": {}}}, "dtype": {"type": "DT_FLOAT"}}}, {"name": "StatefulPartitionedCall/siren_morpher03/sequential/siren_layers.0.2/mul/x", "op": "Const", "attr": {"value": {"tensor": {"dtype": "DT_FLOAT", "tensorShape": {}}}, "dtype": {"type": "DT_FLOAT"}}}, {"name": "StatefulPartitionedCall/siren_morpher03/sequential/siren_layers.0.1/mul/x", "op": "Const", "attr": {"dtype": {"type": "DT_FLOAT"}, "value": {"tensor": {"dtype": "DT_FLOAT", "tensorShape": {}}}}}, {"name": "StatefulPartitionedCall/siren_morpher03/sequential/siren_layers.0.0/mul/x", "op": "Const", "attr": {"value": {"tensor": {"dtype": "DT_FLOAT", "tensorShape": {}}}, "dtype": {"type": "DT_FLOAT"}}}, {"name": "StatefulPartitionedCall/siren_morpher03/Reshape_1", "op": "Const", "attr": {"dtype": {"type": "DT_FLOAT"}, "value": {"tensor": {"dtype": "DT_FLOAT", "tensorShape": {"dim": [{"size": "1"}, {"size": "128"}, {"size": "128"}, {"size": "2"}]}}}}}, {"name": "StatefulPartitionedCall/siren_morpher03/Tile_1/multiples/1", "op": "Const", "attr": {"dtype": {"type": "DT_INT32"}, "value": {"tensor": {"dtype": "DT_INT32", "tensorShape": {}}}}}, {"name": "StatefulPartitionedCall/siren_morpher03/Tile_1/multiples/2", "op": "Const", "attr": {"value": {"tensor": {"dtype": "DT_INT32", "tensorShape": {}}}, "dtype": {"type": "DT_INT32"}}}, {"name": "StatefulPartitionedCall/siren_morpher03/Tile_1/multiples/3", "op": "Const", "attr": {"value": {"tensor": {"dtype": "DT_INT32", "tensorShape": {}}}, "dtype": {"type": "DT_INT32"}}}, {"name": "StatefulPartitionedCall/siren_morpher03/strided_slice_1/stack", "op": "Const", "attr": {"dtype": {"type": "DT_INT32"}, "value": {"tensor": {"dtype": "DT_INT32", "tensorShape": {"dim": [{"size": "1"}]}}}}}, {"name": "StatefulPartitionedCall/siren_morpher03/strided_slice_1/stack_1", "op": "Const", "attr": {"value": {"tensor": {"dtype": "DT_INT32", "tensorShape": {"dim": [{"size": "1"}]}}}, "dtype": {"type": "DT_INT32"}}}, {"name": "StatefulPartitionedCall/siren_morpher03/strided_slice_1/stack_2", "op": "Const", "attr": {"value": {"tensor": {"dtype": "DT_INT32", "tensorShape": {"dim": [{"size": "1"}]}}}, "dtype": {"type": "DT_INT32"}}}, {"name": "StatefulPartitionedCall/siren_morpher03/strided_slice_2/stack", "op": "Const", "attr": {"dtype": {"type": "DT_INT32"}, "value": {"tensor": {"dtype": "DT_INT32", "tensorShape": {"dim": [{"size": "1"}]}}}}}, {"name": "StatefulPartitionedCall/siren_morpher03/strided_slice_2/stack_1", "op": "Const", "attr": {"dtype": {"type": "DT_INT32"}, "value": {"tensor": {"dtype": "DT_INT32", "tensorShape": {"dim": [{"size": "1"}]}}}}}, {"name": "StatefulPartitionedCall/siren_morpher03/strided_slice_2/stack_2", "op": "Const", "attr": {"dtype": {"type": "DT_INT32"}, "value": {"tensor": {"dtype": "DT_INT32", "tensorShape": {"dim": [{"size": "1"}]}}}}}, {"name": "StatefulPartitionedCall/siren_morpher03/Reshape_2/shape/2", "op": "Const", "attr": {"value": {"tensor": {"dtype": "DT_INT32", "tensorShape": {}}}, "dtype": {"type": "DT_INT32"}}}, {"name": "StatefulPartitionedCall/siren_morpher03/Reshape_2/shape/3", "op": "Const", "attr": {"value": {"tensor": {"dtype": "DT_INT32", "tensorShape": {}}}, "dtype": {"type": "DT_INT32"}}}, {"name": "StatefulPartitionedCall/siren_morpher03/Tile_2/multiples", "op": "Const", "attr": {"value": {"tensor": {"dtype": "DT_INT32", "tensorShape": {"dim": [{"size": "4"}]}}}, "dtype": {"type": "DT_INT32"}}}, {"name": "StatefulPartitionedCall/siren_morpher03/transpose/perm", "op": "Const", "attr": {"value": {"tensor": {"dtype": "DT_INT32", "tensorShape": {"dim": [{"size": "4"}]}}}, "dtype": {"type": "DT_INT32"}}}, {"name": "StatefulPartitionedCall/siren_morpher03/concat/axis", "op": "Const", "attr": {"value": {"tensor": {"dtype": "DT_INT32", "tensorShape": {}}}, "dtype": {"type": "DT_INT32"}}}, {"name": "StatefulPartitionedCall/siren_morpher03/sequential/siren_layers.0.0/linear/Conv2D/ReadVariableOp", "op": "Const", "attr": {"value": {"tensor": {"dtype": "DT_FLOAT", "tensorShape": {"dim": [{"size": "1"}, {"size": "1"}, {"size": "47"}, {"size": "360"}]}}}, "dtype": {"type": "DT_FLOAT"}}}, {"name": "StatefulPartitionedCall/siren_morpher03/sequential/siren_layers.0.0/linear/BiasAdd/ReadVariableOp", "op": "Const", "attr": {"dtype": {"type": "DT_FLOAT"}, "value": {"tensor": {"dtype": "DT_FLOAT", "tensorShape": {"dim": [{"size": "360"}]}}}}}, {"name": "StatefulPartitionedCall/siren_morpher03/sequential/siren_layers.0.1/linear/Conv2D/ReadVariableOp", "op": "Const", "attr": {"dtype": {"type": "DT_FLOAT"}, "value": {"tensor": {"dtype": "DT_FLOAT", "tensorShape": {"dim": [{"size": "1"}, {"size": "1"}, {"size": "360"}, {"size": "360"}]}}}}}, {"name": "StatefulPartitionedCall/siren_morpher03/sequential/siren_layers.0.1/linear/BiasAdd/ReadVariableOp", "op": "Const", "attr": {"value": {"tensor": {"dtype": "DT_FLOAT", "tensorShape": {"dim": [{"size": "360"}]}}}, "dtype": {"type": "DT_FLOAT"}}}, {"name": "StatefulPartitionedCall/siren_morpher03/sequential/siren_layers.0.2/linear/Conv2D/ReadVariableOp", "op": "Const", "attr": {"value": {"tensor": {"dtype": "DT_FLOAT", "tensorShape": {"dim": [{"size": "1"}, {"size": "1"}, {"size": "360"}, {"size": "180"}]}}}, "dtype": {"type": "DT_FLOAT"}}}, {"name": "StatefulPartitionedCall/siren_morpher03/sequential/siren_layers.0.2/linear/BiasAdd/ReadVariableOp", "op": "Const", "attr": {"dtype": {"type": "DT_FLOAT"}, "value": {"tensor": {"dtype": "DT_FLOAT", "tensorShape": {"dim": [{"size": "180"}]}}}}}, {"name": "StatefulPartitionedCall/siren_morpher03/resize/size", "op": "Const", "attr": {"dtype": {"type": "DT_INT32"}, "value": {"tensor": {"dtype": "DT_INT32", "tensorShape": {"dim": [{"size": "2"}]}}}}}, {"name": "StatefulPartitionedCall/siren_morpher03/Reshape_4", "op": "Const", "attr": {"value": {"tensor": {"dtype": "DT_FLOAT", "tensorShape": {"dim": [{"size": "1"}, {"size": "256"}, {"size": "256"}, {"size": "2"}]}}}, "dtype": {"type": "DT_FLOAT"}}}, {"name": "StatefulPartitionedCall/siren_morpher03/Tile_4/multiples/1", "op": "Const", "attr": {"dtype": {"type": "DT_INT32"}, "value": {"tensor": {"dtype": "DT_INT32", "tensorShape": {}}}}}, {"name": "StatefulPartitionedCall/siren_morpher03/Tile_4/multiples/2", "op": "Const", "attr": {"value": {"tensor": {"dtype": "DT_INT32", "tensorShape": {}}}, "dtype": {"type": "DT_INT32"}}}, {"name": "StatefulPartitionedCall/siren_morpher03/Tile_4/multiples/3", "op": "Const", "attr": {"value": {"tensor": {"dtype": "DT_INT32", "tensorShape": {}}}, "dtype": {"type": "DT_INT32"}}}, {"name": "StatefulPartitionedCall/siren_morpher03/strided_slice_3/stack", "op": "Const", "attr": {"value": {"tensor": {"dtype": "DT_INT32", "tensorShape": {"dim": [{"size": "1"}]}}}, "dtype": {"type": "DT_INT32"}}}, {"name": "StatefulPartitionedCall/siren_morpher03/strided_slice_3/stack_1", "op": "Const", "attr": {"dtype": {"type": "DT_INT32"}, "value": {"tensor": {"dtype": "DT_INT32", "tensorShape": {"dim": [{"size": "1"}]}}}}}, {"name": "StatefulPartitionedCall/siren_morpher03/strided_slice_3/stack_2", "op": "Const", "attr": {"dtype": {"type": "DT_INT32"}, "value": {"tensor": {"dtype": "DT_INT32", "tensorShape": {"dim": [{"size": "1"}]}}}}}, {"name": "StatefulPartitionedCall/siren_morpher03/strided_slice_4/stack", "op": "Const", "attr": {"value": {"tensor": {"dtype": "DT_INT32", "tensorShape": {"dim": [{"size": "1"}]}}}, "dtype": {"type": "DT_INT32"}}}, {"name": "StatefulPartitionedCall/siren_morpher03/strided_slice_4/stack_1", "op": "Const", "attr": {"dtype": {"type": "DT_INT32"}, "value": {"tensor": {"dtype": "DT_INT32", "tensorShape": {"dim": [{"size": "1"}]}}}}}, {"name": "StatefulPartitionedCall/siren_morpher03/strided_slice_4/stack_2", "op": "Const", "attr": {"value": {"tensor": {"dtype": "DT_INT32", "tensorShape": {"dim": [{"size": "1"}]}}}, "dtype": {"type": "DT_INT32"}}}, {"name": "StatefulPartitionedCall/siren_morpher03/Reshape_5/shape/2", "op": "Const", "attr": {"value": {"tensor": {"dtype": "DT_INT32", "tensorShape": {}}}, "dtype": {"type": "DT_INT32"}}}, {"name": "StatefulPartitionedCall/siren_morpher03/Reshape_5/shape/3", "op": "Const", "attr": {"dtype": {"type": "DT_INT32"}, "value": {"tensor": {"dtype": "DT_INT32", "tensorShape": {}}}}}, {"name": "StatefulPartitionedCall/siren_morpher03/Tile_5/multiples", "op": "Const", "attr": {"dtype": {"type": "DT_INT32"}, "value": {"tensor": {"dtype": "DT_INT32", "tensorShape": {"dim": [{"size": "4"}]}}}}}, {"name": "StatefulPartitionedCall/siren_morpher03/transpose_1/perm", "op": "Const", "attr": {"value": {"tensor": {"dtype": "DT_INT32", "tensorShape": {"dim": [{"size": "4"}]}}}, "dtype": {"type": "DT_INT32"}}}, {"name": "StatefulPartitionedCall/siren_morpher03/concat_2/axis", "op": "Const", "attr": {"dtype": {"type": "DT_INT32"}, "value": {"tensor": {"dtype": "DT_INT32", "tensorShape": {}}}}}, {"name": "StatefulPartitionedCall/siren_morpher03/sequential_1/siren_layers.1.0/linear/Conv2D/ReadVariableOp", "op": "Const", "attr": {"dtype": {"type": "DT_FLOAT"}, "value": {"tensor": {"dtype": "DT_FLOAT", "tensorShape": {"dim": [{"size": "1"}, {"size": "1"}, {"size": "227"}, {"size": "180"}]}}}}}, {"name": "StatefulPartitionedCall/siren_morpher03/sequential_1/siren_layers.1.0/linear/BiasAdd/ReadVariableOp", "op": "Const", "attr": {"dtype": {"type": "DT_FLOAT"}, "value": {"tensor": {"dtype": "DT_FLOAT", "tensorShape": {"dim": [{"size": "180"}]}}}}}, {"name": "StatefulPartitionedCall/siren_morpher03/sequential_1/siren_layers.1.1/linear/Conv2D/ReadVariableOp", "op": "Const", "attr": {"dtype": {"type": "DT_FLOAT"}, "value": {"tensor": {"dtype": "DT_FLOAT", "tensorShape": {"dim": [{"size": "1"}, {"size": "1"}, {"size": "180"}, {"size": "180"}]}}}}}, {"name": "StatefulPartitionedCall/siren_morpher03/sequential_1/siren_layers.1.1/linear/BiasAdd/ReadVariableOp", "op": "Const", "attr": {"value": {"tensor": {"dtype": "DT_FLOAT", "tensorShape": {"dim": [{"size": "180"}]}}}, "dtype": {"type": "DT_FLOAT"}}}, {"name": "StatefulPartitionedCall/siren_morpher03/sequential_1/siren_layers.1.2/linear/Conv2D/ReadVariableOp", "op": "Const", "attr": {"dtype": {"type": "DT_FLOAT"}, "value": {"tensor": {"dtype": "DT_FLOAT", "tensorShape": {"dim": [{"size": "1"}, {"size": "1"}, {"size": "180"}, {"size": "90"}]}}}}}, {"name": "StatefulPartitionedCall/siren_morpher03/sequential_1/siren_layers.1.2/linear/BiasAdd/ReadVariableOp", "op": "Const", "attr": {"value": {"tensor": {"dtype": "DT_FLOAT", "tensorShape": {"dim": [{"size": "90"}]}}}, "dtype": {"type": "DT_FLOAT"}}}, {"name": "StatefulPartitionedCall/siren_morpher03/resize_1/size", "op": "Const", "attr": {"value": {"tensor": {"dtype": "DT_INT32", "tensorShape": {"dim": [{"size": "2"}]}}}, "dtype": {"type": "DT_INT32"}}}, {"name": "StatefulPartitionedCall/siren_morpher03/Reshape_7", "op": "Const", "attr": {"dtype": {"type": "DT_FLOAT"}, "value": {"tensor": {"dtype": "DT_FLOAT", "tensorShape": {"dim": [{"size": "1"}, {"size": "512"}, {"size": "512"}, {"size": "2"}]}}}}}, {"name": "StatefulPartitionedCall/siren_morpher03/strided_slice/stack", "op": "Const", "attr": {"dtype": {"type": "DT_INT32"}, "value": {"tensor": {"dtype": "DT_INT32", "tensorShape": {"dim": [{"size": "1"}]}}}}}, {"name": "StatefulPartitionedCall/siren_morpher03/strided_slice/stack_1", "op": "Const", "attr": {"dtype": {"type": "DT_INT32"}, "value": {"tensor": {"dtype": "DT_INT32", "tensorShape": {"dim": [{"size": "1"}]}}}}}, {"name": "StatefulPartitionedCall/siren_morpher03/strided_slice/stack_2", "op": "Const", "attr": {"dtype": {"type": "DT_INT32"}, "value": {"tensor": {"dtype": "DT_INT32", "tensorShape": {"dim": [{"size": "1"}]}}}}}, {"name": "StatefulPartitionedCall/siren_morpher03/Tile_7/multiples/1", "op": "Const", "attr": {"dtype": {"type": "DT_INT32"}, "value": {"tensor": {"dtype": "DT_INT32", "tensorShape": {}}}}}, {"name": "StatefulPartitionedCall/siren_morpher03/Tile_7/multiples/2", "op": "Const", "attr": {"value": {"tensor": {"dtype": "DT_INT32", "tensorShape": {}}}, "dtype": {"type": "DT_INT32"}}}, {"name": "StatefulPartitionedCall/siren_morpher03/Tile_7/multiples/3", "op": "Const", "attr": {"dtype": {"type": "DT_INT32"}, "value": {"tensor": {"dtype": "DT_INT32", "tensorShape": {}}}}}, {"name": "StatefulPartitionedCall/siren_morpher03/strided_slice_5/stack", "op": "Const", "attr": {"value": {"tensor": {"dtype": "DT_INT32", "tensorShape": {"dim": [{"size": "1"}]}}}, "dtype": {"type": "DT_INT32"}}}, {"name": "StatefulPartitionedCall/siren_morpher03/strided_slice_5/stack_1", "op": "Const", "attr": {"value": {"tensor": {"dtype": "DT_INT32", "tensorShape": {"dim": [{"size": "1"}]}}}, "dtype": {"type": "DT_INT32"}}}, {"name": "StatefulPartitionedCall/siren_morpher03/strided_slice_5/stack_2", "op": "Const", "attr": {"dtype": {"type": "DT_INT32"}, "value": {"tensor": {"dtype": "DT_INT32", "tensorShape": {"dim": [{"size": "1"}]}}}}}, {"name": "StatefulPartitionedCall/siren_morpher03/strided_slice_6/stack", "op": "Const", "attr": {"value": {"tensor": {"dtype": "DT_INT32", "tensorShape": {"dim": [{"size": "1"}]}}}, "dtype": {"type": "DT_INT32"}}}, {"name": "StatefulPartitionedCall/siren_morpher03/strided_slice_6/stack_1", "op": "Const", "attr": {"value": {"tensor": {"dtype": "DT_INT32", "tensorShape": {"dim": [{"size": "1"}]}}}, "dtype": {"type": "DT_INT32"}}}, {"name": "StatefulPartitionedCall/siren_morpher03/strided_slice_6/stack_2", "op": "Const", "attr": {"value": {"tensor": {"dtype": "DT_INT32", "tensorShape": {"dim": [{"size": "1"}]}}}, "dtype": {"type": "DT_INT32"}}}, {"name": "StatefulPartitionedCall/siren_morpher03/Reshape_8/shape/2", "op": "Const", "attr": {"value": {"tensor": {"dtype": "DT_INT32", "tensorShape": {}}}, "dtype": {"type": "DT_INT32"}}}, {"name": "StatefulPartitionedCall/siren_morpher03/Reshape_8/shape/3", "op": "Const", "attr": {"value": {"tensor": {"dtype": "DT_INT32", "tensorShape": {}}}, "dtype": {"type": "DT_INT32"}}}, {"name": "StatefulPartitionedCall/siren_morpher03/Tile_8/multiples", "op": "Const", "attr": {"dtype": {"type": "DT_INT32"}, "value": {"tensor": {"dtype": "DT_INT32", "tensorShape": {"dim": [{"size": "4"}]}}}}}, {"name": "StatefulPartitionedCall/siren_morpher03/transpose_2/perm", "op": "Const", "attr": {"value": {"tensor": {"dtype": "DT_INT32", "tensorShape": {"dim": [{"size": "4"}]}}}, "dtype": {"type": "DT_INT32"}}}, {"name": "StatefulPartitionedCall/siren_morpher03/concat_4/axis", "op": "Const", "attr": {"value": {"tensor": {"dtype": "DT_INT32", "tensorShape": {}}}, "dtype": {"type": "DT_INT32"}}}, {"name": "StatefulPartitionedCall/siren_morpher03/sequential_2/siren_layers.2.0/linear/Conv2D/ReadVariableOp", "op": "Const", "attr": {"dtype": {"type": "DT_FLOAT"}, "value": {"tensor": {"dtype": "DT_FLOAT", "tensorShape": {"dim": [{"size": "1"}, {"size": "1"}, {"size": "137"}, {"size": "90"}]}}}}}, {"name": "StatefulPartitionedCall/siren_morpher03/sequential_2/siren_layers.2.0/linear/BiasAdd/ReadVariableOp", "op": "Const", "attr": {"value": {"tensor": {"dtype": "DT_FLOAT", "tensorShape": {"dim": [{"size": "90"}]}}}, "dtype": {"type": "DT_FLOAT"}}}, {"name": "StatefulPartitionedCall/siren_morpher03/sequential_2/siren_layers.2.1/linear/Conv2D/ReadVariableOp", "op": "Const", "attr": {"value": {"tensor": {"dtype": "DT_FLOAT", "tensorShape": {"dim": [{"size": "1"}, {"size": "1"}, {"size": "90"}, {"size": "90"}]}}}, "dtype": {"type": "DT_FLOAT"}}}, {"name": "StatefulPartitionedCall/siren_morpher03/sequential_2/siren_layers.2.1/linear/BiasAdd/ReadVariableOp", "op": "Const", "attr": {"value": {"tensor": {"dtype": "DT_FLOAT", "tensorShape": {"dim": [{"size": "90"}]}}}, "dtype": {"type": "DT_FLOAT"}}}, {"name": "StatefulPartitionedCall/siren_morpher03/sequential_2/siren_layers.2.2/linear/Conv2D/ReadVariableOp", "op": "Const", "attr": {"value": {"tensor": {"dtype": "DT_FLOAT", "tensorShape": {"dim": [{"size": "1"}, {"size": "1"}, {"size": "90"}, {"size": "90"}]}}}, "dtype": {"type": "DT_FLOAT"}}}, {"name": "StatefulPartitionedCall/siren_morpher03/sequential_2/siren_layers.2.2/linear/BiasAdd/ReadVariableOp", "op": "Const", "attr": {"value": {"tensor": {"dtype": "DT_FLOAT", "tensorShape": {"dim": [{"size": "90"}]}}}, "dtype": {"type": "DT_FLOAT"}}}, {"name": "StatefulPartitionedCall/siren_morpher03/last_linear/Conv2D/ReadVariableOp", "op": "Const", "attr": {"value": {"tensor": {"dtype": "DT_FLOAT", "tensorShape": {"dim": [{"size": "1"}, {"size": "1"}, {"size": "90"}, {"size": "7"}]}}}, "dtype": {"type": "DT_FLOAT"}}}, {"name": "StatefulPartitionedCall/siren_morpher03/last_linear/BiasAdd/ReadVariableOp", "op": "Const", "attr": {"value": {"tensor": {"dtype": "DT_FLOAT", "tensorShape": {"dim": [{"size": "7"}]}}}, "dtype": {"type": "DT_FLOAT"}}}, {"name": "StatefulPartitionedCall/siren_morpher03/strided_slice_7/stack", "op": "Const", "attr": {"value": {"tensor": {"dtype": "DT_INT32", "tensorShape": {"dim": [{"size": "4"}]}}}, "dtype": {"type": "DT_INT32"}}}, {"name": "StatefulPartitionedCall/siren_morpher03/strided_slice_7/stack_1", "op": "Const", "attr": {"dtype": {"type": "DT_INT32"}, "value": {"tensor": {"dtype": "DT_INT32", "tensorShape": {"dim": [{"size": "4"}]}}}}}, {"name": "StatefulPartitionedCall/siren_morpher03/strided_slice_7/stack_2", "op": "Const", "attr": {"dtype": {"type": "DT_INT32"}, "value": {"tensor": {"dtype": "DT_INT32", "tensorShape": {"dim": [{"size": "4"}]}}}}}, {"name": "args_0", "op": "Placeholder", "attr": {"shape": {"shape": {"dim": [{"size": "-1"}, {"size": "512"}, {"size": "512"}, {"size": "4"}]}}, "dtype": {"type": "DT_FLOAT"}}}, {"name": "args_1", "op": "Placeholder", "attr": {"dtype": {"type": "DT_FLOAT"}, "shape": {"shape": {"dim": [{"size": "-1"}, {"size": "45"}]}}}}, {"name": "StatefulPartitionedCall/siren_morpher03/BatchGatherND/Shape", "op": "Shape", "input": ["args_0"], "attr": {"out_type": {"type": "DT_INT32"}, "T": {"type": "DT_FLOAT"}}, "experimentalType": {"typeId": "TFT_PRODUCT", "args": [{"typeId": "TFT_SHAPE_TENSOR", "args": [{"typeId": "TFT_INT32"}]}]}}, {"name": "StatefulPartitionedCall/siren_morpher03/BatchGatherND_1/Shape", "op": "Shape", "input": ["args_0"], "attr": {"T": {"type": "DT_FLOAT"}, "out_type": {"type": "DT_INT32"}}, "experimentalType": {"typeId": "TFT_PRODUCT", "args": [{"typeId": "TFT_SHAPE_TENSOR", "args": [{"typeId": "TFT_INT32"}]}]}}, {"name": "StatefulPartitionedCall/siren_morpher03/BatchGatherND_2/Shape", "op": "Shape", "input": ["args_0"], "attr": {"T": {"type": "DT_FLOAT"}, "out_type": {"type": "DT_INT32"}}, "experimentalType": {"typeId": "TFT_PRODUCT", "args": [{"typeId": "TFT_SHAPE_TENSOR", "args": [{"typeId": "TFT_INT32"}]}]}}, {"name": "StatefulPartitionedCall/siren_morpher03/BatchGatherND_3/Shape", "op": "Shape", "input": ["args_0"], "attr": {"T": {"type": "DT_FLOAT"}, "out_type": {"type": "DT_INT32"}}, "experimentalType": {"typeId": "TFT_PRODUCT", "args": [{"typeId": "TFT_SHAPE_TENSOR", "args": [{"typeId": "TFT_INT32"}]}]}}, {"name": "StatefulPartitionedCall/siren_morpher03/Shape_7", "op": "Shape", "input": ["args_0"], "attr": {"out_type": {"type": "DT_INT32"}, "T": {"type": "DT_FLOAT"}}, "experimentalType": {"typeId": "TFT_PRODUCT", "args": [{"typeId": "TFT_SHAPE_TENSOR", "args": [{"typeId": "TFT_INT32"}]}]}}, {"name": "StatefulPartitionedCall/siren_morpher03/Shape_1", "op": "Shape", "input": ["args_1"], "attr": {"out_type": {"type": "DT_INT32"}, "T": {"type": "DT_FLOAT"}}, "experimentalType": {"typeId": "TFT_PRODUCT", "args": [{"typeId": "TFT_SHAPE_TENSOR", "args": [{"typeId": "TFT_INT32"}]}]}}, {"name": "StatefulPartitionedCall/siren_morpher03/Shape_2", "op": "Shape", "input": ["args_1"], "attr": {"out_type": {"type": "DT_INT32"}, "T": {"type": "DT_FLOAT"}}, "experimentalType": {"typeId": "TFT_PRODUCT", "args": [{"typeId": "TFT_SHAPE_TENSOR", "args": [{"typeId": "TFT_INT32"}]}]}}, {"name": "StatefulPartitionedCall/siren_morpher03/Shape_3", "op": "Shape", "input": ["args_1"], "attr": {"out_type": {"type": "DT_INT32"}, "T": {"type": "DT_FLOAT"}}, "experimentalType": {"typeId": "TFT_PRODUCT", "args": [{"typeId": "TFT_SHAPE_TENSOR", "args": [{"typeId": "TFT_INT32"}]}]}}, {"name": "StatefulPartitionedCall/siren_morpher03/Shape_4", "op": "Shape", "input": ["args_1"], "attr": {"out_type": {"type": "DT_INT32"}, "T": {"type": "DT_FLOAT"}}, "experimentalType": {"typeId": "TFT_PRODUCT", "args": [{"typeId": "TFT_SHAPE_TENSOR", "args": [{"typeId": "TFT_INT32"}]}]}}, {"name": "StatefulPartitionedCall/siren_morpher03/Shape", "op": "Shape", "input": ["args_1"], "attr": {"out_type": {"type": "DT_INT32"}, "T": {"type": "DT_FLOAT"}}, "experimentalType": {"typeId": "TFT_PRODUCT", "args": [{"typeId": "TFT_SHAPE_TENSOR", "args": [{"typeId": "TFT_INT32"}]}]}}, {"name": "StatefulPartitionedCall/siren_morpher03/Shape_5", "op": "Shape", "input": ["args_1"], "attr": {"out_type": {"type": "DT_INT32"}, "T": {"type": "DT_FLOAT"}}, "experimentalType": {"typeId": "TFT_PRODUCT", "args": [{"typeId": "TFT_SHAPE_TENSOR", "args": [{"typeId": "TFT_INT32"}]}]}}, {"name": "StatefulPartitionedCall/siren_morpher03/Shape_6", "op": "Shape", "input": ["args_1"], "attr": {"out_type": {"type": "DT_INT32"}, "T": {"type": "DT_FLOAT"}}, "experimentalType": {"typeId": "TFT_PRODUCT", "args": [{"typeId": "TFT_SHAPE_TENSOR", "args": [{"typeId": "TFT_INT32"}]}]}}, {"name": "StatefulPartitionedCall/siren_morpher03/BatchGatherND/strided_slice", "op": "StridedSlice", "input": ["StatefulPartitionedCall/siren_morpher03/BatchGatherND/Shape", "StatefulPartitionedCall/siren_morpher03/BatchGatherND/strided_slice/stack", "StatefulPartitionedCall/siren_morpher03/BatchGatherND/strided_slice/stack_1", "StatefulPartitionedCall/siren_morpher03/BatchGatherND/strided_slice/stack_2"], "attr": {"begin_mask": {"i": "1"}, "end_mask": {"i": "0"}, "new_axis_mask": {"i": "0"}, "Index": {"type": "DT_INT32"}, "ellipsis_mask": {"i": "0"}, "shrink_axis_mask": {"i": "0"}, "T": {"type": "DT_INT32"}}}, {"name": "StatefulPartitionedCall/siren_morpher03/BatchGatherND_1/strided_slice", "op": "StridedSlice", "input": ["StatefulPartitionedCall/siren_morpher03/BatchGatherND_1/Shape", "StatefulPartitionedCall/siren_morpher03/BatchGatherND_1/strided_slice/stack", "StatefulPartitionedCall/siren_morpher03/BatchGatherND_1/strided_slice/stack_1", "StatefulPartitionedCall/siren_morpher03/BatchGatherND_1/strided_slice/stack_2"], "attr": {"begin_mask": {"i": "1"}, "shrink_axis_mask": {"i": "0"}, "end_mask": {"i": "0"}, "new_axis_mask": {"i": "0"}, "ellipsis_mask": {"i": "0"}, "T": {"type": "DT_INT32"}, "Index": {"type": "DT_INT32"}}}, {"name": "StatefulPartitionedCall/siren_morpher03/BatchGatherND_2/strided_slice", "op": "StridedSlice", "input": ["StatefulPartitionedCall/siren_morpher03/BatchGatherND_2/Shape", "StatefulPartitionedCall/siren_morpher03/BatchGatherND_2/strided_slice/stack", "StatefulPartitionedCall/siren_morpher03/BatchGatherND_2/strided_slice/stack_1", "StatefulPartitionedCall/siren_morpher03/BatchGatherND_2/strided_slice/stack_2"], "attr": {"begin_mask": {"i": "1"}, "end_mask": {"i": "0"}, "Index": {"type": "DT_INT32"}, "shrink_axis_mask": {"i": "0"}, "ellipsis_mask": {"i": "0"}, "T": {"type": "DT_INT32"}, "new_axis_mask": {"i": "0"}}}, {"name": "StatefulPartitionedCall/siren_morpher03/BatchGatherND_3/strided_slice", "op": "StridedSlice", "input": ["StatefulPartitionedCall/siren_morpher03/BatchGatherND_3/Shape", "StatefulPartitionedCall/siren_morpher03/BatchGatherND_3/strided_slice/stack", "StatefulPartitionedCall/siren_morpher03/BatchGatherND_3/strided_slice/stack_1", "StatefulPartitionedCall/siren_morpher03/BatchGatherND_3/strided_slice/stack_2"], "attr": {"begin_mask": {"i": "1"}, "ellipsis_mask": {"i": "0"}, "T": {"type": "DT_INT32"}, "shrink_axis_mask": {"i": "0"}, "new_axis_mask": {"i": "0"}, "Index": {"type": "DT_INT32"}, "end_mask": {"i": "0"}}}, {"name": "StatefulPartitionedCall/siren_morpher03/strided_slice_10", "op": "StridedSlice", "input": ["StatefulPartitionedCall/siren_morpher03/Shape_7", "StatefulPartitionedCall/siren_morpher03/strided_slice_10/stack", "StatefulPartitionedCall/siren_morpher03/strided_slice_10/stack_1", "StatefulPartitionedCall/siren_morpher03/strided_slice_10/stack_2"], "attr": {"ellipsis_mask": {"i": "0"}, "T": {"type": "DT_INT32"}, "end_mask": {"i": "0"}, "new_axis_mask": {"i": "0"}, "shrink_axis_mask": {"i": "1"}, "Index": {"type": "DT_INT32"}, "begin_mask": {"i": "0"}}}, {"name": "StatefulPartitionedCall/siren_morpher03/strided_slice_1", "op": "StridedSlice", "input": ["StatefulPartitionedCall/siren_morpher03/Shape_1", "StatefulPartitionedCall/siren_morpher03/strided_slice_1/stack", "StatefulPartitionedCall/siren_morpher03/strided_slice_1/stack_1", "StatefulPartitionedCall/siren_morpher03/strided_slice_1/stack_2"], "attr": {"Index": {"type": "DT_INT32"}, "new_axis_mask": {"i": "0"}, "end_mask": {"i": "0"}, "begin_mask": {"i": "0"}, "ellipsis_mask": {"i": "0"}, "shrink_axis_mask": {"i": "1"}, "T": {"type": "DT_INT32"}}}, {"name": "StatefulPartitionedCall/siren_morpher03/strided_slice_2", "op": "StridedSlice", "input": ["StatefulPartitionedCall/siren_morpher03/Shape_2", "StatefulPartitionedCall/siren_morpher03/strided_slice_2/stack", "StatefulPartitionedCall/siren_morpher03/strided_slice_2/stack_1", "StatefulPartitionedCall/siren_morpher03/strided_slice_2/stack_2"], "attr": {"new_axis_mask": {"i": "0"}, "shrink_axis_mask": {"i": "1"}, "Index": {"type": "DT_INT32"}, "begin_mask": {"i": "0"}, "ellipsis_mask": {"i": "0"}, "T": {"type": "DT_INT32"}, "end_mask": {"i": "0"}}}, {"name": "StatefulPartitionedCall/siren_morpher03/strided_slice_3", "op": "StridedSlice", "input": ["StatefulPartitionedCall/siren_morpher03/Shape_3", "StatefulPartitionedCall/siren_morpher03/strided_slice_3/stack", "StatefulPartitionedCall/siren_morpher03/strided_slice_3/stack_1", "StatefulPartitionedCall/siren_morpher03/strided_slice_3/stack_2"], "attr": {"new_axis_mask": {"i": "0"}, "T": {"type": "DT_INT32"}, "shrink_axis_mask": {"i": "1"}, "Index": {"type": "DT_INT32"}, "end_mask": {"i": "0"}, "begin_mask": {"i": "0"}, "ellipsis_mask": {"i": "0"}}}, {"name": "StatefulPartitionedCall/siren_morpher03/strided_slice_4", "op": "StridedSlice", "input": ["StatefulPartitionedCall/siren_morpher03/Shape_4", "StatefulPartitionedCall/siren_morpher03/strided_slice_4/stack", "StatefulPartitionedCall/siren_morpher03/strided_slice_4/stack_1", "StatefulPartitionedCall/siren_morpher03/strided_slice_4/stack_2"], "attr": {"ellipsis_mask": {"i": "0"}, "T": {"type": "DT_INT32"}, "new_axis_mask": {"i": "0"}, "end_mask": {"i": "0"}, "shrink_axis_mask": {"i": "1"}, "begin_mask": {"i": "0"}, "Index": {"type": "DT_INT32"}}}, {"name": "StatefulPartitionedCall/siren_morpher03/strided_slice", "op": "StridedSlice", "input": ["StatefulPartitionedCall/siren_morpher03/Shape", "StatefulPartitionedCall/siren_morpher03/strided_slice/stack", "StatefulPartitionedCall/siren_morpher03/strided_slice/stack_1", "StatefulPartitionedCall/siren_morpher03/strided_slice/stack_2"], "attr": {"shrink_axis_mask": {"i": "1"}, "new_axis_mask": {"i": "0"}, "ellipsis_mask": {"i": "0"}, "T": {"type": "DT_INT32"}, "Index": {"type": "DT_INT32"}, "end_mask": {"i": "0"}, "begin_mask": {"i": "0"}}}, {"name": "StatefulPartitionedCall/siren_morpher03/strided_slice_5", "op": "StridedSlice", "input": ["StatefulPartitionedCall/siren_morpher03/Shape_5", "StatefulPartitionedCall/siren_morpher03/strided_slice_5/stack", "StatefulPartitionedCall/siren_morpher03/strided_slice_5/stack_1", "StatefulPartitionedCall/siren_morpher03/strided_slice_5/stack_2"], "attr": {"T": {"type": "DT_INT32"}, "shrink_axis_mask": {"i": "1"}, "new_axis_mask": {"i": "0"}, "Index": {"type": "DT_INT32"}, "begin_mask": {"i": "0"}, "end_mask": {"i": "0"}, "ellipsis_mask": {"i": "0"}}}, {"name": "StatefulPartitionedCall/siren_morpher03/strided_slice_6", "op": "StridedSlice", "input": ["StatefulPartitionedCall/siren_morpher03/Shape_6", "StatefulPartitionedCall/siren_morpher03/strided_slice_6/stack", "StatefulPartitionedCall/siren_morpher03/strided_slice_6/stack_1", "StatefulPartitionedCall/siren_morpher03/strided_slice_6/stack_2"], "attr": {"end_mask": {"i": "0"}, "shrink_axis_mask": {"i": "1"}, "begin_mask": {"i": "0"}, "Index": {"type": "DT_INT32"}, "ellipsis_mask": {"i": "0"}, "T": {"type": "DT_INT32"}, "new_axis_mask": {"i": "0"}}}, {"name": "StatefulPartitionedCall/siren_morpher03/BatchGatherND/unstack", "op": "Unpack", "input": ["StatefulPartitionedCall/siren_morpher03/BatchGatherND/strided_slice"], "attr": {"axis": {"i": "0"}, "num": {"i": "1"}, "T": {"type": "DT_INT32"}}}, {"name": "StatefulPartitionedCall/siren_morpher03/BatchGatherND/Prod", "op": "Prod", "input": ["StatefulPartitionedCall/siren_morpher03/BatchGatherND/strided_slice", "StatefulPartitionedCall/siren_morpher03/BatchGatherND/Prod/reduction_indices"], "attr": {"T": {"type": "DT_INT32"}, "Tidx": {"type": "DT_INT32"}, "keep_dims": {"b": false}}}, {"name": "StatefulPartitionedCall/siren_morpher03/BatchGatherND_1/unstack", "op": "Unpack", "input": ["StatefulPartitionedCall/siren_morpher03/BatchGatherND_1/strided_slice"], "attr": {"axis": {"i": "0"}, "num": {"i": "1"}, "T": {"type": "DT_INT32"}}}, {"name": "StatefulPartitionedCall/siren_morpher03/BatchGatherND_1/Prod", "op": "Prod", "input": ["StatefulPartitionedCall/siren_morpher03/BatchGatherND_1/strided_slice", "StatefulPartitionedCall/siren_morpher03/BatchGatherND_1/Prod/reduction_indices"], "attr": {"T": {"type": "DT_INT32"}, "keep_dims": {"b": false}, "Tidx": {"type": "DT_INT32"}}}, {"name": "StatefulPartitionedCall/siren_morpher03/BatchGatherND_2/unstack", "op": "Unpack", "input": ["StatefulPartitionedCall/siren_morpher03/BatchGatherND_2/strided_slice"], "attr": {"num": {"i": "1"}, "T": {"type": "DT_INT32"}, "axis": {"i": "0"}}}, {"name": "StatefulPartitionedCall/siren_morpher03/BatchGatherND_2/Prod", "op": "Prod", "input": ["StatefulPartitionedCall/siren_morpher03/BatchGatherND_2/strided_slice", "StatefulPartitionedCall/siren_morpher03/BatchGatherND_2/Prod/reduction_indices"], "attr": {"T": {"type": "DT_INT32"}, "keep_dims": {"b": false}, "Tidx": {"type": "DT_INT32"}}}, {"name": "StatefulPartitionedCall/siren_morpher03/BatchGatherND_3/unstack", "op": "Unpack", "input": ["StatefulPartitionedCall/siren_morpher03/BatchGatherND_3/strided_slice"], "attr": {"axis": {"i": "0"}, "num": {"i": "1"}, "T": {"type": "DT_INT32"}}}, {"name": "StatefulPartitionedCall/siren_morpher03/BatchGatherND_3/Prod", "op": "Prod", "input": ["StatefulPartitionedCall/siren_morpher03/BatchGatherND_3/strided_slice", "StatefulPartitionedCall/siren_morpher03/BatchGatherND_3/Prod/reduction_indices"], "attr": {"T": {"type": "DT_INT32"}, "Tidx": {"type": "DT_INT32"}, "keep_dims": {"b": false}}}, {"name": "StatefulPartitionedCall/siren_morpher03/Tile_10/multiples", "op": "Pack", "input": ["StatefulPartitionedCall/siren_morpher03/strided_slice_10", "StatefulPartitionedCall/siren_morpher03/Tile_10/multiples/1", "StatefulPartitionedCall/siren_morpher03/Tile_10/multiples/2", "StatefulPartitionedCall/siren_morpher03/Tile_10/multiples/3"], "attr": {"axis": {"i": "0"}, "T": {"type": "DT_INT32"}, "N": {"i": "4"}}}, {"name": "StatefulPartitionedCall/siren_morpher03/Reshape_9/shape", "op": "Pack", "input": ["StatefulPartitionedCall/siren_morpher03/strided_slice_10", "StatefulPartitionedCall/siren_morpher03/Reshape_9/shape/1", "StatefulPartitionedCall/siren_morpher03/Reshape_9/shape/2"], "attr": {"T": {"type": "DT_INT32"}, "axis": {"i": "0"}, "N": {"i": "3"}}}, {"name": "StatefulPartitionedCall/siren_morpher03/Tile_9/multiples", "op": "Pack", "input": ["StatefulPartitionedCall/siren_morpher03/strided_slice_10", "StatefulPartitionedCall/siren_morpher03/Tile_9/multiples/1", "StatefulPartitionedCall/siren_morpher03/Tile_9/multiples/2"], "attr": {"N": {"i": "3"}, "T": {"type": "DT_INT32"}, "axis": {"i": "0"}}}, {"name": "StatefulPartitionedCall/siren_morpher03/Reshape_10/shape", "op": "Pack", "input": ["StatefulPartitionedCall/siren_morpher03/strided_slice_10", "StatefulPartitionedCall/siren_morpher03/Reshape_10/shape/1", "StatefulPartitionedCall/siren_morpher03/Reshape_10/shape/2", "StatefulPartitionedCall/siren_morpher03/Reshape_10/shape/3"], "attr": {"axis": {"i": "0"}, "N": {"i": "4"}, "T": {"type": "DT_INT32"}}}, {"name": "StatefulPartitionedCall/siren_morpher03/Reshape_2/shape", "op": "Pack", "input": ["StatefulPartitionedCall/siren_morpher03/strided_slice_1", "StatefulPartitionedCall/siren_morpher03/strided_slice_2", "StatefulPartitionedCall/siren_morpher03/Reshape_2/shape/2", "StatefulPartitionedCall/siren_morpher03/Reshape_2/shape/3"], "attr": {"N": {"i": "4"}, "T": {"type": "DT_INT32"}, "axis": {"i": "0"}}}, {"name": "StatefulPartitionedCall/siren_morpher03/Reshape_5/shape", "op": "Pack", "input": ["StatefulPartitionedCall/siren_morpher03/strided_slice_3", "StatefulPartitionedCall/siren_morpher03/strided_slice_4", "StatefulPartitionedCall/siren_morpher03/Reshape_5/shape/2", "StatefulPartitionedCall/siren_morpher03/Reshape_5/shape/3"], "attr": {"T": {"type": "DT_INT32"}, "N": {"i": "4"}, "axis": {"i": "0"}}}, {"name": "StatefulPartitionedCall/siren_morpher03/Tile_1/multiples", "op": "Pack", "input": ["StatefulPartitionedCall/siren_morpher03/strided_slice", "StatefulPartitionedCall/siren_morpher03/Tile_1/multiples/1", "StatefulPartitionedCall/siren_morpher03/Tile_1/multiples/2", "StatefulPartitionedCall/siren_morpher03/Tile_1/multiples/3"], "attr": {"T": {"type": "DT_INT32"}, "N": {"i": "4"}, "axis": {"i": "0"}}}, {"name": "StatefulPartitionedCall/siren_morpher03/Tile_4/multiples", "op": "Pack", "input": ["StatefulPartitionedCall/siren_morpher03/strided_slice", "StatefulPartitionedCall/siren_morpher03/Tile_4/multiples/1", "StatefulPartitionedCall/siren_morpher03/Tile_4/multiples/2", "StatefulPartitionedCall/siren_morpher03/Tile_4/multiples/3"], "attr": {"axis": {"i": "0"}, "N": {"i": "4"}, "T": {"type": "DT_INT32"}}}, {"name": "StatefulPartitionedCall/siren_morpher03/Tile_7/multiples", "op": "Pack", "input": ["StatefulPartitionedCall/siren_morpher03/strided_slice", "StatefulPartitionedCall/siren_morpher03/Tile_7/multiples/1", "StatefulPartitionedCall/siren_morpher03/Tile_7/multiples/2", "StatefulPartitionedCall/siren_morpher03/Tile_7/multiples/3"], "attr": {"N": {"i": "4"}, "T": {"type": "DT_INT32"}, "axis": {"i": "0"}}}, {"name": "StatefulPartitionedCall/siren_morpher03/Reshape_8/shape", "op": "Pack", "input": ["StatefulPartitionedCall/siren_morpher03/strided_slice_5", "StatefulPartitionedCall/siren_morpher03/strided_slice_6", "StatefulPartitionedCall/siren_morpher03/Reshape_8/shape/2", "StatefulPartitionedCall/siren_morpher03/Reshape_8/shape/3"], "attr": {"T": {"type": "DT_INT32"}, "N": {"i": "4"}, "axis": {"i": "0"}}}, {"name": "StatefulPartitionedCall/siren_morpher03/BatchGatherND/Range", "op": "Range", "input": ["StatefulPartitionedCall/siren_morpher03/BatchGatherND/Range/start", "StatefulPartitionedCall/siren_morpher03/BatchGatherND/unstack", "StatefulPartitionedCall/siren_morpher03/BatchGatherND/Range/delta"], "attr": {"Tidx": {"type": "DT_INT32"}}}, {"name": "ConstantFolding/StatefulPartitionedCall/siren_morpher03/BatchGatherND/concat_2/values_0_const_axis", "op": "Const", "input": ["^StatefulPartitionedCall/siren_morpher03/BatchGatherND/Prod"], "attr": {"dtype": {"type": "DT_INT32"}, "value": {"tensor": {"dtype": "DT_INT32", "tensorShape": {}}}}}, {"name": "StatefulPartitionedCall/siren_morpher03/BatchGatherND_1/Range", "op": "Range", "input": ["StatefulPartitionedCall/siren_morpher03/BatchGatherND_1/Range/start", "StatefulPartitionedCall/siren_morpher03/BatchGatherND_1/unstack", "StatefulPartitionedCall/siren_morpher03/BatchGatherND_1/Range/delta"], "attr": {"Tidx": {"type": "DT_INT32"}}}, {"name": "ConstantFolding/StatefulPartitionedCall/siren_morpher03/BatchGatherND_1/concat_2/values_0_const_axis", "op": "Const", "input": ["^StatefulPartitionedCall/siren_morpher03/BatchGatherND_1/Prod"], "attr": {"dtype": {"type": "DT_INT32"}, "value": {"tensor": {"dtype": "DT_INT32", "tensorShape": {}}}}}, {"name": "StatefulPartitionedCall/siren_morpher03/BatchGatherND_2/Range", "op": "Range", "input": ["StatefulPartitionedCall/siren_morpher03/BatchGatherND_2/Range/start", "StatefulPartitionedCall/siren_morpher03/BatchGatherND_2/unstack", "StatefulPartitionedCall/siren_morpher03/BatchGatherND_2/Range/delta"], "attr": {"Tidx": {"type": "DT_INT32"}}}, {"name": "ConstantFolding/StatefulPartitionedCall/siren_morpher03/BatchGatherND_2/concat_2/values_0_const_axis", "op": "Const", "input": ["^StatefulPartitionedCall/siren_morpher03/BatchGatherND_2/Prod"], "attr": {"value": {"tensor": {"dtype": "DT_INT32", "tensorShape": {}}}, "dtype": {"type": "DT_INT32"}}}, {"name": "StatefulPartitionedCall/siren_morpher03/BatchGatherND_3/Range", "op": "Range", "input": ["StatefulPartitionedCall/siren_morpher03/BatchGatherND_3/Range/start", "StatefulPartitionedCall/siren_morpher03/BatchGatherND_3/unstack", "StatefulPartitionedCall/siren_morpher03/BatchGatherND_3/Range/delta"], "attr": {"Tidx": {"type": "DT_INT32"}}}, {"name": "ConstantFolding/StatefulPartitionedCall/siren_morpher03/BatchGatherND_3/concat_2/values_0_const_axis", "op": "Const", "input": ["^StatefulPartitionedCall/siren_morpher03/BatchGatherND_3/Prod"], "attr": {"dtype": {"type": "DT_INT32"}, "value": {"tensor": {"dtype": "DT_INT32", "tensorShape": {}}}}}, {"name": "StatefulPartitionedCall/siren_morpher03/Tile_10", "op": "Tile", "input": ["StatefulPartitionedCall/siren_morpher03/ExpandDims_4", "StatefulPartitionedCall/siren_morpher03/Tile_10/multiples"], "attr": {"T": {"type": "DT_FLOAT"}, "Tmultiples": {"type": "DT_INT32"}}}, {"name": "StatefulPartitionedCall/siren_morpher03/Tile_9", "op": "Tile", "input": ["StatefulPartitionedCall/siren_morpher03/ExpandDims_3", "StatefulPartitionedCall/siren_morpher03/Tile_9/multiples"], "attr": {"Tmultiples": {"type": "DT_INT32"}, "T": {"type": "DT_FLOAT"}}}, {"name": "StatefulPartitionedCall/siren_morpher03/Reshape_2", "op": "Reshape", "input": ["args_1", "StatefulPartitionedCall/siren_morpher03/Reshape_2/shape"], "attr": {"Tshape": {"type": "DT_INT32"}, "T": {"type": "DT_FLOAT"}}}, {"name": "StatefulPartitionedCall/siren_morpher03/Reshape_5", "op": "Reshape", "input": ["args_1", "StatefulPartitionedCall/siren_morpher03/Reshape_5/shape"], "attr": {"T": {"type": "DT_FLOAT"}, "Tshape": {"type": "DT_INT32"}}}, {"name": "StatefulPartitionedCall/siren_morpher03/Tile_1", "op": "Tile", "input": ["StatefulPartitionedCall/siren_morpher03/Reshape_1", "StatefulPartitionedCall/siren_morpher03/Tile_1/multiples"], "attr": {"T": {"type": "DT_FLOAT"}, "Tmultiples": {"type": "DT_INT32"}}}, {"name": "StatefulPartitionedCall/siren_morpher03/Tile_4", "op": "Tile", "input": ["StatefulPartitionedCall/siren_morpher03/Reshape_4", "StatefulPartitionedCall/siren_morpher03/Tile_4/multiples"], "attr": {"T": {"type": "DT_FLOAT"}, "Tmultiples": {"type": "DT_INT32"}}}, {"name": "StatefulPartitionedCall/siren_morpher03/Tile_7", "op": "Tile", "input": ["StatefulPartitionedCall/siren_morpher03/Reshape_7", "StatefulPartitionedCall/siren_morpher03/Tile_7/multiples"], "attr": {"T": {"type": "DT_FLOAT"}, "Tmultiples": {"type": "DT_INT32"}}}, {"name": "StatefulPartitionedCall/siren_morpher03/Reshape_8", "op": "Reshape", "input": ["args_1", "StatefulPartitionedCall/siren_morpher03/Reshape_8/shape"], "attr": {"Tshape": {"type": "DT_INT32"}, "T": {"type": "DT_FLOAT"}}}, {"name": "StatefulPartitionedCall/siren_morpher03/BatchGatherND/meshgrid/Size", "op": "Size", "input": ["StatefulPartitionedCall/siren_morpher03/BatchGatherND/Range"], "attr": {"out_type": {"type": "DT_INT32"}, "T": {"type": "DT_INT32"}}}, {"name": "StatefulPartitionedCall/siren_morpher03/BatchGatherND/concat_2/values_0", "op": "ExpandDims", "input": ["StatefulPartitionedCall/siren_morpher03/BatchGatherND/Prod", "ConstantFolding/StatefulPartitionedCall/siren_morpher03/BatchGatherND/concat_2/values_0_const_axis"], "attr": {"Tdim": {"type": "DT_INT32"}, "T": {"type": "DT_INT32"}}}, {"name": "StatefulPartitionedCall/siren_morpher03/BatchGatherND_1/meshgrid/Size", "op": "Size", "input": ["StatefulPartitionedCall/siren_morpher03/BatchGatherND_1/Range"], "attr": {"T": {"type": "DT_INT32"}, "out_type": {"type": "DT_INT32"}}}, {"name": "StatefulPartitionedCall/siren_morpher03/BatchGatherND_1/concat_2/values_0", "op": "ExpandDims", "input": ["StatefulPartitionedCall/siren_morpher03/BatchGatherND_1/Prod", "ConstantFolding/StatefulPartitionedCall/siren_morpher03/BatchGatherND_1/concat_2/values_0_const_axis"], "attr": {"Tdim": {"type": "DT_INT32"}, "T": {"type": "DT_INT32"}}}, {"name": "StatefulPartitionedCall/siren_morpher03/BatchGatherND_2/meshgrid/Size", "op": "Size", "input": ["StatefulPartitionedCall/siren_morpher03/BatchGatherND_2/Range"], "attr": {"T": {"type": "DT_INT32"}, "out_type": {"type": "DT_INT32"}}}, {"name": "StatefulPartitionedCall/siren_morpher03/BatchGatherND_2/concat_2/values_0", "op": "ExpandDims", "input": ["StatefulPartitionedCall/siren_morpher03/BatchGatherND_2/Prod", "ConstantFolding/StatefulPartitionedCall/siren_morpher03/BatchGatherND_2/concat_2/values_0_const_axis"], "attr": {"Tdim": {"type": "DT_INT32"}, "T": {"type": "DT_INT32"}}}, {"name": "StatefulPartitionedCall/siren_morpher03/BatchGatherND_3/meshgrid/Size", "op": "Size", "input": ["StatefulPartitionedCall/siren_morpher03/BatchGatherND_3/Range"], "attr": {"T": {"type": "DT_INT32"}, "out_type": {"type": "DT_INT32"}}}, {"name": "StatefulPartitionedCall/siren_morpher03/BatchGatherND_3/concat_2/values_0", "op": "ExpandDims", "input": ["StatefulPartitionedCall/siren_morpher03/BatchGatherND_3/Prod", "ConstantFolding/StatefulPartitionedCall/siren_morpher03/BatchGatherND_3/concat_2/values_0_const_axis"], "attr": {"T": {"type": "DT_INT32"}, "Tdim": {"type": "DT_INT32"}}}, {"name": "StatefulPartitionedCall/siren_morpher03/Reshape_9", "op": "Reshape", "input": ["StatefulPartitionedCall/siren_morpher03/Tile_10", "StatefulPartitionedCall/siren_morpher03/Reshape_9/shape"], "attr": {"Tshape": {"type": "DT_INT32"}, "T": {"type": "DT_FLOAT"}}}, {"name": "StatefulPartitionedCall/siren_morpher03/Tile_2", "op": "Tile", "input": ["StatefulPartitionedCall/siren_morpher03/Reshape_2", "StatefulPartitionedCall/siren_morpher03/Tile_2/multiples"], "attr": {"T": {"type": "DT_FLOAT"}, "Tmultiples": {"type": "DT_INT32"}}}, {"name": "StatefulPartitionedCall/siren_morpher03/Tile_5", "op": "Tile", "input": ["StatefulPartitionedCall/siren_morpher03/Reshape_5", "StatefulPartitionedCall/siren_morpher03/Tile_5/multiples"], "attr": {"Tmultiples": {"type": "DT_INT32"}, "T": {"type": "DT_FLOAT"}}}, {"name": "StatefulPartitionedCall/siren_morpher03/Tile_8", "op": "Tile", "input": ["StatefulPartitionedCall/siren_morpher03/Reshape_8", "StatefulPartitionedCall/siren_morpher03/Tile_8/multiples"], "attr": {"Tmultiples": {"type": "DT_INT32"}, "T": {"type": "DT_FLOAT"}}}, {"name": "ConstantFolding/StatefulPartitionedCall/siren_morpher03/BatchGatherND/meshgrid/ones/packed_const_axis", "op": "Const", "input": ["^StatefulPartitionedCall/siren_morpher03/BatchGatherND/meshgrid/Size"], "attr": {"value": {"tensor": {"dtype": "DT_INT32", "tensorShape": {}}}, "dtype": {"type": "DT_INT32"}}}, {"name": "ConstantFolding/StatefulPartitionedCall/siren_morpher03/BatchGatherND_1/meshgrid/ones/packed_const_axis", "op": "Const", "input": ["^StatefulPartitionedCall/siren_morpher03/BatchGatherND_1/meshgrid/Size"], "attr": {"value": {"tensor": {"dtype": "DT_INT32", "tensorShape": {}}}, "dtype": {"type": "DT_INT32"}}}, {"name": "ConstantFolding/StatefulPartitionedCall/siren_morpher03/BatchGatherND_2/meshgrid/ones/packed_const_axis", "op": "Const", "input": ["^StatefulPartitionedCall/siren_morpher03/BatchGatherND_2/meshgrid/Size"], "attr": {"dtype": {"type": "DT_INT32"}, "value": {"tensor": {"dtype": "DT_INT32", "tensorShape": {}}}}}, {"name": "ConstantFolding/StatefulPartitionedCall/siren_morpher03/BatchGatherND_3/meshgrid/ones/packed_const_axis", "op": "Const", "input": ["^StatefulPartitionedCall/siren_morpher03/BatchGatherND_3/meshgrid/Size"], "attr": {"dtype": {"type": "DT_INT32"}, "value": {"tensor": {"dtype": "DT_INT32", "tensorShape": {}}}}}, {"name": "StatefulPartitionedCall/siren_morpher03/MatMul_3", "op": "BatchMatMulV2", "input": ["StatefulPartitionedCall/siren_morpher03/Reshape_9", "StatefulPartitionedCall/siren_morpher03/Tile_9"], "attr": {"adj_x": {"b": false}, "T": {"type": "DT_FLOAT"}, "adj_y": {"b": true}}}, {"name": "StatefulPartitionedCall/siren_morpher03/transpose", "op": "Transpose", "input": ["StatefulPartitionedCall/siren_morpher03/Tile_2", "StatefulPartitionedCall/siren_morpher03/transpose/perm"], "attr": {"Tperm": {"type": "DT_INT32"}, "T": {"type": "DT_FLOAT"}}}, {"name": "StatefulPartitionedCall/siren_morpher03/transpose_1", "op": "Transpose", "input": ["StatefulPartitionedCall/siren_morpher03/Tile_5", "StatefulPartitionedCall/siren_morpher03/transpose_1/perm"], "attr": {"T": {"type": "DT_FLOAT"}, "Tperm": {"type": "DT_INT32"}}}, {"name": "StatefulPartitionedCall/siren_morpher03/transpose_2", "op": "Transpose", "input": ["StatefulPartitionedCall/siren_morpher03/Tile_8", "StatefulPartitionedCall/siren_morpher03/transpose_2/perm"], "attr": {"T": {"type": "DT_FLOAT"}, "Tperm": {"type": "DT_INT32"}}}, {"name": "StatefulPartitionedCall/siren_morpher03/BatchGatherND/meshgrid/ones/packed", "op": "ExpandDims", "input": ["StatefulPartitionedCall/siren_morpher03/BatchGatherND/meshgrid/Size", "ConstantFolding/StatefulPartitionedCall/siren_morpher03/BatchGatherND/meshgrid/ones/packed_const_axis"], "attr": {"Tdim": {"type": "DT_INT32"}, "T": {"type": "DT_INT32"}}}, {"name": "StatefulPartitionedCall/siren_morpher03/BatchGatherND_1/meshgrid/ones/packed", "op": "ExpandDims", "input": ["StatefulPartitionedCall/siren_morpher03/BatchGatherND_1/meshgrid/Size", "ConstantFolding/StatefulPartitionedCall/siren_morpher03/BatchGatherND_1/meshgrid/ones/packed_const_axis"], "attr": {"Tdim": {"type": "DT_INT32"}, "T": {"type": "DT_INT32"}}}, {"name": "StatefulPartitionedCall/siren_morpher03/BatchGatherND_2/meshgrid/ones/packed", "op": "ExpandDims", "input": ["StatefulPartitionedCall/siren_morpher03/BatchGatherND_2/meshgrid/Size", "ConstantFolding/StatefulPartitionedCall/siren_morpher03/BatchGatherND_2/meshgrid/ones/packed_const_axis"], "attr": {"T": {"type": "DT_INT32"}, "Tdim": {"type": "DT_INT32"}}}, {"name": "StatefulPartitionedCall/siren_morpher03/BatchGatherND_3/meshgrid/ones/packed", "op": "ExpandDims", "input": ["StatefulPartitionedCall/siren_morpher03/BatchGatherND_3/meshgrid/Size", "ConstantFolding/StatefulPartitionedCall/siren_morpher03/BatchGatherND_3/meshgrid/ones/packed_const_axis"], "attr": {"Tdim": {"type": "DT_INT32"}, "T": {"type": "DT_INT32"}}}, {"name": "StatefulPartitionedCall/siren_morpher03/Reshape_10", "op": "Reshape", "input": ["StatefulPartitionedCall/siren_morpher03/MatMul_3", "StatefulPartitionedCall/siren_morpher03/Reshape_10/shape"], "attr": {"Tshape": {"type": "DT_INT32"}, "T": {"type": "DT_FLOAT"}}}, {"name": "StatefulPartitionedCall/siren_morpher03/concat", "op": "ConcatV2", "input": ["StatefulPartitionedCall/siren_morpher03/Tile_1", "StatefulPartitionedCall/siren_morpher03/transpose", "StatefulPartitionedCall/siren_morpher03/concat/axis"], "attr": {"Tidx": {"type": "DT_INT32"}, "N": {"i": "2"}, "T": {"type": "DT_FLOAT"}}}, {"name": "StatefulPartitionedCall/siren_morpher03/BatchGatherND/meshgrid/ones", "op": "Fill", "input": ["StatefulPartitionedCall/siren_morpher03/BatchGatherND/meshgrid/ones/packed", "StatefulPartitionedCall/siren_morpher03/BatchGatherND/meshgrid/ones/Const"], "attr": {"index_type": {"type": "DT_INT32"}, "T": {"type": "DT_INT32"}}}, {"name": "StatefulPartitionedCall/siren_morpher03/BatchGatherND_1/meshgrid/ones", "op": "Fill", "input": ["StatefulPartitionedCall/siren_morpher03/BatchGatherND_1/meshgrid/ones/packed", "StatefulPartitionedCall/siren_morpher03/BatchGatherND_1/meshgrid/ones/Const"], "attr": {"index_type": {"type": "DT_INT32"}, "T": {"type": "DT_INT32"}}}, {"name": "StatefulPartitionedCall/siren_morpher03/BatchGatherND_2/meshgrid/ones", "op": "Fill", "input": ["StatefulPartitionedCall/siren_morpher03/BatchGatherND_2/meshgrid/ones/packed", "StatefulPartitionedCall/siren_morpher03/BatchGatherND_2/meshgrid/ones/Const"], "attr": {"index_type": {"type": "DT_INT32"}, "T": {"type": "DT_INT32"}}}, {"name": "StatefulPartitionedCall/siren_morpher03/BatchGatherND_3/meshgrid/ones", "op": "Fill", "input": ["StatefulPartitionedCall/siren_morpher03/BatchGatherND_3/meshgrid/ones/packed", "StatefulPartitionedCall/siren_morpher03/BatchGatherND_3/meshgrid/ones/Const"], "attr": {"index_type": {"type": "DT_INT32"}, "T": {"type": "DT_INT32"}}}, {"name": "StatefulPartitionedCall/siren_morpher03/sequential/siren_layers.0.0/linear/BiasAdd", "op": "_FusedConv2D", "input": ["StatefulPartitionedCall/siren_morpher03/concat", "StatefulPartitionedCall/siren_morpher03/sequential/siren_layers.0.0/linear/Conv2D/ReadVariableOp", "StatefulPartitionedCall/siren_morpher03/sequential/siren_layers.0.0/linear/BiasAdd/ReadVariableOp"], "device": "/device:CPU:0", "attr": {"leakyrelu_alpha": {"f": 0.2}, "num_host_args": {"i": "0"}, "data_format": {"s": "TkhXQw=="}, "T": {"type": "DT_FLOAT"}, "strides": {"list": {"i": ["1", "1", "1", "1"]}}, "dilations": {"list": {"i": ["1", "1", "1", "1"]}}, "fused_ops": {"list": {"s": ["Qmlhc0FkZA=="]}}, "num_args": {"i": "1"}, "padding": {"s": "VkFMSUQ="}, "use_cudnn_on_gpu": {"b": true}, "epsilon": {"f": 0.0}, "filter_format": {"s": "SFdJTw=="}, "explicit_paddings": {"list": {}}, "TArgs": {"list": {"type": ["DT_FLOAT"]}}}}, {"name": "StatefulPartitionedCall/siren_morpher03/BatchGatherND/meshgrid/mul", "op": "Mul", "input": ["StatefulPartitionedCall/siren_morpher03/BatchGatherND/Range", "StatefulPartitionedCall/siren_morpher03/BatchGatherND/meshgrid/ones"], "attr": {"T": {"type": "DT_INT32"}}}, {"name": "StatefulPartitionedCall/siren_morpher03/BatchGatherND_1/meshgrid/mul", "op": "Mul", "input": ["StatefulPartitionedCall/siren_morpher03/BatchGatherND_1/Range", "StatefulPartitionedCall/siren_morpher03/BatchGatherND_1/meshgrid/ones"], "attr": {"T": {"type": "DT_INT32"}}}, {"name": "StatefulPartitionedCall/siren_morpher03/BatchGatherND_2/meshgrid/mul", "op": "Mul", "input": ["StatefulPartitionedCall/siren_morpher03/BatchGatherND_2/Range", "StatefulPartitionedCall/siren_morpher03/BatchGatherND_2/meshgrid/ones"], "attr": {"T": {"type": "DT_INT32"}}}, {"name": "StatefulPartitionedCall/siren_morpher03/BatchGatherND_3/meshgrid/mul", "op": "Mul", "input": ["StatefulPartitionedCall/siren_morpher03/BatchGatherND_3/Range", "StatefulPartitionedCall/siren_morpher03/BatchGatherND_3/meshgrid/ones"], "attr": {"T": {"type": "DT_INT32"}}}, {"name": "StatefulPartitionedCall/siren_morpher03/sequential/siren_layers.0.0/mul", "op": "Mul", "input": ["StatefulPartitionedCall/siren_morpher03/sequential/siren_layers.0.0/mul/x", "StatefulPartitionedCall/siren_morpher03/sequential/siren_layers.0.0/linear/BiasAdd"], "attr": {"T": {"type": "DT_FLOAT"}}}, {"name": "ConstantFolding/StatefulPartitionedCall/siren_morpher03/BatchGatherND/stack_const_axis", "op": "Const", "input": ["^StatefulPartitionedCall/siren_morpher03/BatchGatherND/meshgrid/mul"], "attr": {"value": {"tensor": {"dtype": "DT_INT32", "tensorShape": {}}}, "dtype": {"type": "DT_INT32"}}}, {"name": "ConstantFolding/StatefulPartitionedCall/siren_morpher03/BatchGatherND_1/stack_const_axis", "op": "Const", "input": ["^StatefulPartitionedCall/siren_morpher03/BatchGatherND_1/meshgrid/mul"], "attr": {"value": {"tensor": {"dtype": "DT_INT32", "tensorShape": {}}}, "dtype": {"type": "DT_INT32"}}}, {"name": "ConstantFolding/StatefulPartitionedCall/siren_morpher03/BatchGatherND_2/stack_const_axis", "op": "Const", "input": ["^StatefulPartitionedCall/siren_morpher03/BatchGatherND_2/meshgrid/mul"], "attr": {"dtype": {"type": "DT_INT32"}, "value": {"tensor": {"dtype": "DT_INT32", "tensorShape": {}}}}}, {"name": "ConstantFolding/StatefulPartitionedCall/siren_morpher03/BatchGatherND_3/stack_const_axis", "op": "Const", "input": ["^StatefulPartitionedCall/siren_morpher03/BatchGatherND_3/meshgrid/mul"], "attr": {"dtype": {"type": "DT_INT32"}, "value": {"tensor": {"dtype": "DT_INT32", "tensorShape": {}}}}}, {"name": "StatefulPartitionedCall/siren_morpher03/sequential/siren_layers.0.0/Sin", "op": "Sin", "input": ["StatefulPartitionedCall/siren_morpher03/sequential/siren_layers.0.0/mul"], "attr": {"T": {"type": "DT_FLOAT"}}}, {"name": "StatefulPartitionedCall/siren_morpher03/BatchGatherND/stack", "op": "ExpandDims", "input": ["StatefulPartitionedCall/siren_morpher03/BatchGatherND/meshgrid/mul", "ConstantFolding/StatefulPartitionedCall/siren_morpher03/BatchGatherND/stack_const_axis"], "attr": {"Tdim": {"type": "DT_INT32"}, "T": {"type": "DT_INT32"}}}, {"name": "StatefulPartitionedCall/siren_morpher03/BatchGatherND_1/stack", "op": "ExpandDims", "input": ["StatefulPartitionedCall/siren_morpher03/BatchGatherND_1/meshgrid/mul", "ConstantFolding/StatefulPartitionedCall/siren_morpher03/BatchGatherND_1/stack_const_axis"], "attr": {"T": {"type": "DT_INT32"}, "Tdim": {"type": "DT_INT32"}}}, {"name": "StatefulPartitionedCall/siren_morpher03/BatchGatherND_2/stack", "op": "ExpandDims", "input": ["StatefulPartitionedCall/siren_morpher03/BatchGatherND_2/meshgrid/mul", "ConstantFolding/StatefulPartitionedCall/siren_morpher03/BatchGatherND_2/stack_const_axis"], "attr": {"Tdim": {"type": "DT_INT32"}, "T": {"type": "DT_INT32"}}}, {"name": "StatefulPartitionedCall/siren_morpher03/BatchGatherND_3/stack", "op": "ExpandDims", "input": ["StatefulPartitionedCall/siren_morpher03/BatchGatherND_3/meshgrid/mul", "ConstantFolding/StatefulPartitionedCall/siren_morpher03/BatchGatherND_3/stack_const_axis"], "attr": {"Tdim": {"type": "DT_INT32"}, "T": {"type": "DT_INT32"}}}, {"name": "StatefulPartitionedCall/siren_morpher03/sequential/siren_layers.0.1/linear/BiasAdd", "op": "_FusedConv2D", "input": ["StatefulPartitionedCall/siren_morpher03/sequential/siren_layers.0.0/Sin", "StatefulPartitionedCall/siren_morpher03/sequential/siren_layers.0.1/linear/Conv2D/ReadVariableOp", "StatefulPartitionedCall/siren_morpher03/sequential/siren_layers.0.1/linear/BiasAdd/ReadVariableOp"], "device": "/device:CPU:0", "attr": {"TArgs": {"list": {"type": ["DT_FLOAT"]}}, "explicit_paddings": {"list": {}}, "use_cudnn_on_gpu": {"b": true}, "data_format": {"s": "TkhXQw=="}, "strides": {"list": {"i": ["1", "1", "1", "1"]}}, "epsilon": {"f": 0.0}, "T": {"type": "DT_FLOAT"}, "filter_format": {"s": "SFdJTw=="}, "fused_ops": {"list": {"s": ["Qmlhc0FkZA=="]}}, "leakyrelu_alpha": {"f": 0.2}, "dilations": {"list": {"i": ["1", "1", "1", "1"]}}, "padding": {"s": "VkFMSUQ="}, "num_args": {"i": "1"}, "num_host_args": {"i": "0"}}}, {"name": "StatefulPartitionedCall/siren_morpher03/BatchGatherND/transpose", "op": "Transpose", "input": ["StatefulPartitionedCall/siren_morpher03/BatchGatherND/stack", "StatefulPartitionedCall/siren_morpher03/BatchGatherND/transpose/perm"], "attr": {"Tperm": {"type": "DT_INT32"}, "T": {"type": "DT_INT32"}}}, {"name": "StatefulPartitionedCall/siren_morpher03/BatchGatherND_1/transpose", "op": "Transpose", "input": ["StatefulPartitionedCall/siren_morpher03/BatchGatherND_1/stack", "StatefulPartitionedCall/siren_morpher03/BatchGatherND_1/transpose/perm"], "attr": {"Tperm": {"type": "DT_INT32"}, "T": {"type": "DT_INT32"}}}, {"name": "StatefulPartitionedCall/siren_morpher03/BatchGatherND_2/transpose", "op": "Transpose", "input": ["StatefulPartitionedCall/siren_morpher03/BatchGatherND_2/stack", "StatefulPartitionedCall/siren_morpher03/BatchGatherND_2/transpose/perm"], "attr": {"Tperm": {"type": "DT_INT32"}, "T": {"type": "DT_INT32"}}}, {"name": "StatefulPartitionedCall/siren_morpher03/BatchGatherND_3/transpose", "op": "Transpose", "input": ["StatefulPartitionedCall/siren_morpher03/BatchGatherND_3/stack", "StatefulPartitionedCall/siren_morpher03/BatchGatherND_3/transpose/perm"], "attr": {"T": {"type": "DT_INT32"}, "Tperm": {"type": "DT_INT32"}}}, {"name": "StatefulPartitionedCall/siren_morpher03/sequential/siren_layers.0.1/mul", "op": "Mul", "input": ["StatefulPartitionedCall/siren_morpher03/sequential/siren_layers.0.1/mul/x", "StatefulPartitionedCall/siren_morpher03/sequential/siren_layers.0.1/linear/BiasAdd"], "attr": {"T": {"type": "DT_FLOAT"}}}, {"name": "StatefulPartitionedCall/siren_morpher03/BatchGatherND/Shape_2", "op": "Shape", "input": ["StatefulPartitionedCall/siren_morpher03/BatchGatherND/transpose"], "attr": {"out_type": {"type": "DT_INT32"}, "T": {"type": "DT_INT32"}}, "experimentalType": {"typeId": "TFT_PRODUCT", "args": [{"typeId": "TFT_SHAPE_TENSOR", "args": [{"typeId": "TFT_INT32"}]}]}}, {"name": "StatefulPartitionedCall/siren_morpher03/BatchGatherND_1/Shape_2", "op": "Shape", "input": ["StatefulPartitionedCall/siren_morpher03/BatchGatherND_1/transpose"], "attr": {"T": {"type": "DT_INT32"}, "out_type": {"type": "DT_INT32"}}, "experimentalType": {"typeId": "TFT_PRODUCT", "args": [{"typeId": "TFT_SHAPE_TENSOR", "args": [{"typeId": "TFT_INT32"}]}]}}, {"name": "StatefulPartitionedCall/siren_morpher03/BatchGatherND_2/Shape_2", "op": "Shape", "input": ["StatefulPartitionedCall/siren_morpher03/BatchGatherND_2/transpose"], "attr": {"out_type": {"type": "DT_INT32"}, "T": {"type": "DT_INT32"}}, "experimentalType": {"typeId": "TFT_PRODUCT", "args": [{"typeId": "TFT_SHAPE_TENSOR", "args": [{"typeId": "TFT_INT32"}]}]}}, {"name": "StatefulPartitionedCall/siren_morpher03/BatchGatherND_3/Shape_2", "op": "Shape", "input": ["StatefulPartitionedCall/siren_morpher03/BatchGatherND_3/transpose"], "attr": {"out_type": {"type": "DT_INT32"}, "T": {"type": "DT_INT32"}}, "experimentalType": {"typeId": "TFT_PRODUCT", "args": [{"typeId": "TFT_SHAPE_TENSOR", "args": [{"typeId": "TFT_INT32"}]}]}}, {"name": "StatefulPartitionedCall/siren_morpher03/sequential/siren_layers.0.1/Sin", "op": "Sin", "input": ["StatefulPartitionedCall/siren_morpher03/sequential/siren_layers.0.1/mul"], "attr": {"T": {"type": "DT_FLOAT"}}}, {"name": "StatefulPartitionedCall/siren_morpher03/BatchGatherND/strided_slice_2", "op": "StridedSlice", "input": ["StatefulPartitionedCall/siren_morpher03/BatchGatherND/Shape_2", "StatefulPartitionedCall/siren_morpher03/BatchGatherND/strided_slice_2/stack", "StatefulPartitionedCall/siren_morpher03/BatchGatherND/strided_slice_2/stack_1", "StatefulPartitionedCall/siren_morpher03/BatchGatherND/strided_slice_2/stack_2"], "attr": {"end_mask": {"i": "0"}, "shrink_axis_mask": {"i": "0"}, "new_axis_mask": {"i": "0"}, "Index": {"type": "DT_INT32"}, "begin_mask": {"i": "1"}, "ellipsis_mask": {"i": "0"}, "T": {"type": "DT_INT32"}}}, {"name": "StatefulPartitionedCall/siren_morpher03/BatchGatherND/strided_slice_3", "op": "StridedSlice", "input": ["StatefulPartitionedCall/siren_morpher03/BatchGatherND/Shape_2", "StatefulPartitionedCall/siren_morpher03/BatchGatherND/strided_slice_3/stack", "StatefulPartitionedCall/siren_morpher03/BatchGatherND/strided_slice_3/stack_1", "StatefulPartitionedCall/siren_morpher03/BatchGatherND/strided_slice_3/stack_2"], "attr": {"end_mask": {"i": "1"}, "new_axis_mask": {"i": "0"}, "Index": {"type": "DT_INT32"}, "begin_mask": {"i": "0"}, "ellipsis_mask": {"i": "0"}, "shrink_axis_mask": {"i": "0"}, "T": {"type": "DT_INT32"}}}, {"name": "StatefulPartitionedCall/siren_morpher03/BatchGatherND_1/strided_slice_2", "op": "StridedSlice", "input": ["StatefulPartitionedCall/siren_morpher03/BatchGatherND_1/Shape_2", "StatefulPartitionedCall/siren_morpher03/BatchGatherND_1/strided_slice_2/stack", "StatefulPartitionedCall/siren_morpher03/BatchGatherND_1/strided_slice_2/stack_1", "StatefulPartitionedCall/siren_morpher03/BatchGatherND_1/strided_slice_2/stack_2"], "attr": {"begin_mask": {"i": "1"}, "ellipsis_mask": {"i": "0"}, "end_mask": {"i": "0"}, "T": {"type": "DT_INT32"}, "shrink_axis_mask": {"i": "0"}, "new_axis_mask": {"i": "0"}, "Index": {"type": "DT_INT32"}}}, {"name": "StatefulPartitionedCall/siren_morpher03/BatchGatherND_1/strided_slice_3", "op": "StridedSlice", "input": ["StatefulPartitionedCall/siren_morpher03/BatchGatherND_1/Shape_2", "StatefulPartitionedCall/siren_morpher03/BatchGatherND_1/strided_slice_3/stack", "StatefulPartitionedCall/siren_morpher03/BatchGatherND_1/strided_slice_3/stack_1", "StatefulPartitionedCall/siren_morpher03/BatchGatherND_1/strided_slice_3/stack_2"], "attr": {"shrink_axis_mask": {"i": "0"}, "new_axis_mask": {"i": "0"}, "end_mask": {"i": "1"}, "begin_mask": {"i": "0"}, "ellipsis_mask": {"i": "0"}, "T": {"type": "DT_INT32"}, "Index": {"type": "DT_INT32"}}}, {"name": "StatefulPartitionedCall/siren_morpher03/BatchGatherND_2/strided_slice_2", "op": "StridedSlice", "input": ["StatefulPartitionedCall/siren_morpher03/BatchGatherND_2/Shape_2", "StatefulPartitionedCall/siren_morpher03/BatchGatherND_2/strided_slice_2/stack", "StatefulPartitionedCall/siren_morpher03/BatchGatherND_2/strided_slice_2/stack_1", "StatefulPartitionedCall/siren_morpher03/BatchGatherND_2/strided_slice_2/stack_2"], "attr": {"shrink_axis_mask": {"i": "0"}, "new_axis_mask": {"i": "0"}, "end_mask": {"i": "0"}, "ellipsis_mask": {"i": "0"}, "T": {"type": "DT_INT32"}, "begin_mask": {"i": "1"}, "Index": {"type": "DT_INT32"}}}, {"name": "StatefulPartitionedCall/siren_morpher03/BatchGatherND_2/strided_slice_3", "op": "StridedSlice", "input": ["StatefulPartitionedCall/siren_morpher03/BatchGatherND_2/Shape_2", "StatefulPartitionedCall/siren_morpher03/BatchGatherND_2/strided_slice_3/stack", "StatefulPartitionedCall/siren_morpher03/BatchGatherND_2/strided_slice_3/stack_1", "StatefulPartitionedCall/siren_morpher03/BatchGatherND_2/strided_slice_3/stack_2"], "attr": {"ellipsis_mask": {"i": "0"}, "begin_mask": {"i": "0"}, "end_mask": {"i": "1"}, "T": {"type": "DT_INT32"}, "new_axis_mask": {"i": "0"}, "Index": {"type": "DT_INT32"}, "shrink_axis_mask": {"i": "0"}}}, {"name": "StatefulPartitionedCall/siren_morpher03/BatchGatherND_3/strided_slice_2", "op": "StridedSlice", "input": ["StatefulPartitionedCall/siren_morpher03/BatchGatherND_3/Shape_2", "StatefulPartitionedCall/siren_morpher03/BatchGatherND_3/strided_slice_2/stack", "StatefulPartitionedCall/siren_morpher03/BatchGatherND_3/strided_slice_2/stack_1", "StatefulPartitionedCall/siren_morpher03/BatchGatherND_3/strided_slice_2/stack_2"], "attr": {"shrink_axis_mask": {"i": "0"}, "end_mask": {"i": "0"}, "begin_mask": {"i": "1"}, "T": {"type": "DT_INT32"}, "ellipsis_mask": {"i": "0"}, "new_axis_mask": {"i": "0"}, "Index": {"type": "DT_INT32"}}}, {"name": "StatefulPartitionedCall/siren_morpher03/BatchGatherND_3/strided_slice_3", "op": "StridedSlice", "input": ["StatefulPartitionedCall/siren_morpher03/BatchGatherND_3/Shape_2", "StatefulPartitionedCall/siren_morpher03/BatchGatherND_3/strided_slice_3/stack", "StatefulPartitionedCall/siren_morpher03/BatchGatherND_3/strided_slice_3/stack_1", "StatefulPartitionedCall/siren_morpher03/BatchGatherND_3/strided_slice_3/stack_2"], "attr": {"new_axis_mask": {"i": "0"}, "begin_mask": {"i": "0"}, "T": {"type": "DT_INT32"}, "shrink_axis_mask": {"i": "0"}, "Index": {"type": "DT_INT32"}, "ellipsis_mask": {"i": "0"}, "end_mask": {"i": "1"}}}, {"name": "StatefulPartitionedCall/siren_morpher03/sequential/siren_layers.0.2/linear/BiasAdd", "op": "_FusedConv2D", "input": ["StatefulPartitionedCall/siren_morpher03/sequential/siren_layers.0.1/Sin", "StatefulPartitionedCall/siren_morpher03/sequential/siren_layers.0.2/linear/Conv2D/ReadVariableOp", "StatefulPartitionedCall/siren_morpher03/sequential/siren_layers.0.2/linear/BiasAdd/ReadVariableOp"], "device": "/device:CPU:0", "attr": {"data_format": {"s": "TkhXQw=="}, "TArgs": {"list": {"type": ["DT_FLOAT"]}}, "strides": {"list": {"i": ["1", "1", "1", "1"]}}, "epsilon": {"f": 0.0}, "padding": {"s": "VkFMSUQ="}, "leakyrelu_alpha": {"f": 0.2}, "num_host_args": {"i": "0"}, "filter_format": {"s": "SFdJTw=="}, "explicit_paddings": {"list": {}}, "use_cudnn_on_gpu": {"b": true}, "T": {"type": "DT_FLOAT"}, "fused_ops": {"list": {"s": ["Qmlhc0FkZA=="]}}, "num_args": {"i": "1"}, "dilations": {"list": {"i": ["1", "1", "1", "1"]}}}}, {"name": "StatefulPartitionedCall/siren_morpher03/BatchGatherND/concat", "op": "ConcatV2", "input": ["StatefulPartitionedCall/siren_morpher03/BatchGatherND/strided_slice_2", "StatefulPartitionedCall/siren_morpher03/BatchGatherND/ones", "StatefulPartitionedCall/siren_morpher03/BatchGatherND/strided_slice_3", "StatefulPartitionedCall/siren_morpher03/BatchGatherND/concat/axis"], "attr": {"T": {"type": "DT_INT32"}, "N": {"i": "3"}, "Tidx": {"type": "DT_INT32"}}}, {"name": "StatefulPartitionedCall/siren_morpher03/BatchGatherND_1/concat", "op": "ConcatV2", "input": ["StatefulPartitionedCall/siren_morpher03/BatchGatherND_1/strided_slice_2", "StatefulPartitionedCall/siren_morpher03/BatchGatherND_1/ones", "StatefulPartitionedCall/siren_morpher03/BatchGatherND_1/strided_slice_3", "StatefulPartitionedCall/siren_morpher03/BatchGatherND_1/concat/axis"], "attr": {"Tidx": {"type": "DT_INT32"}, "T": {"type": "DT_INT32"}, "N": {"i": "3"}}}, {"name": "StatefulPartitionedCall/siren_morpher03/BatchGatherND_2/concat", "op": "ConcatV2", "input": ["StatefulPartitionedCall/siren_morpher03/BatchGatherND_2/strided_slice_2", "StatefulPartitionedCall/siren_morpher03/BatchGatherND_2/ones", "StatefulPartitionedCall/siren_morpher03/BatchGatherND_2/strided_slice_3", "StatefulPartitionedCall/siren_morpher03/BatchGatherND_2/concat/axis"], "attr": {"Tidx": {"type": "DT_INT32"}, "N": {"i": "3"}, "T": {"type": "DT_INT32"}}}, {"name": "StatefulPartitionedCall/siren_morpher03/BatchGatherND_3/concat", "op": "ConcatV2", "input": ["StatefulPartitionedCall/siren_morpher03/BatchGatherND_3/strided_slice_2", "StatefulPartitionedCall/siren_morpher03/BatchGatherND_3/ones", "StatefulPartitionedCall/siren_morpher03/BatchGatherND_3/strided_slice_3", "StatefulPartitionedCall/siren_morpher03/BatchGatherND_3/concat/axis"], "attr": {"T": {"type": "DT_INT32"}, "N": {"i": "3"}, "Tidx": {"type": "DT_INT32"}}}, {"name": "StatefulPartitionedCall/siren_morpher03/sequential/siren_layers.0.2/mul", "op": "Mul", "input": ["StatefulPartitionedCall/siren_morpher03/sequential/siren_layers.0.2/mul/x", "StatefulPartitionedCall/siren_morpher03/sequential/siren_layers.0.2/linear/BiasAdd"], "attr": {"T": {"type": "DT_FLOAT"}}}, {"name": "StatefulPartitionedCall/siren_morpher03/BatchGatherND/Reshape_1", "op": "Reshape", "input": ["StatefulPartitionedCall/siren_morpher03/BatchGatherND/transpose", "StatefulPartitionedCall/siren_morpher03/BatchGatherND/concat"], "attr": {"Tshape": {"type": "DT_INT32"}, "T": {"type": "DT_INT32"}}}, {"name": "StatefulPartitionedCall/siren_morpher03/BatchGatherND_1/Reshape_1", "op": "Reshape", "input": ["StatefulPartitionedCall/siren_morpher03/BatchGatherND_1/transpose", "StatefulPartitionedCall/siren_morpher03/BatchGatherND_1/concat"], "attr": {"T": {"type": "DT_INT32"}, "Tshape": {"type": "DT_INT32"}}}, {"name": "StatefulPartitionedCall/siren_morpher03/BatchGatherND_2/Reshape_1", "op": "Reshape", "input": ["StatefulPartitionedCall/siren_morpher03/BatchGatherND_2/transpose", "StatefulPartitionedCall/siren_morpher03/BatchGatherND_2/concat"], "attr": {"Tshape": {"type": "DT_INT32"}, "T": {"type": "DT_INT32"}}}, {"name": "StatefulPartitionedCall/siren_morpher03/BatchGatherND_3/Reshape_1", "op": "Reshape", "input": ["StatefulPartitionedCall/siren_morpher03/BatchGatherND_3/transpose", "StatefulPartitionedCall/siren_morpher03/BatchGatherND_3/concat"], "attr": {"Tshape": {"type": "DT_INT32"}, "T": {"type": "DT_INT32"}}}, {"name": "StatefulPartitionedCall/siren_morpher03/sequential/siren_layers.0.2/Sin", "op": "Sin", "input": ["StatefulPartitionedCall/siren_morpher03/sequential/siren_layers.0.2/mul"], "attr": {"T": {"type": "DT_FLOAT"}}}, {"name": "StatefulPartitionedCall/siren_morpher03/resize/ResizeBilinear", "op": "ResizeBilinear", "input": ["StatefulPartitionedCall/siren_morpher03/sequential/siren_layers.0.2/Sin", "StatefulPartitionedCall/siren_morpher03/resize/size"], "attr": {"half_pixel_centers": {"b": true}, "align_corners": {"b": false}, "T": {"type": "DT_FLOAT"}}}, {"name": "StatefulPartitionedCall/siren_morpher03/concat_2", "op": "ConcatV2", "input": ["StatefulPartitionedCall/siren_morpher03/resize/ResizeBilinear", "StatefulPartitionedCall/siren_morpher03/Tile_4", "StatefulPartitionedCall/siren_morpher03/transpose_1", "StatefulPartitionedCall/siren_morpher03/concat_2/axis"], "attr": {"N": {"i": "3"}, "T": {"type": "DT_FLOAT"}, "Tidx": {"type": "DT_INT32"}}}, {"name": "StatefulPartitionedCall/siren_morpher03/sequential_1/siren_layers.1.0/linear/BiasAdd", "op": "_FusedConv2D", "input": ["StatefulPartitionedCall/siren_morpher03/concat_2", "StatefulPartitionedCall/siren_morpher03/sequential_1/siren_layers.1.0/linear/Conv2D/ReadVariableOp", "StatefulPartitionedCall/siren_morpher03/sequential_1/siren_layers.1.0/linear/BiasAdd/ReadVariableOp"], "device": "/device:CPU:0", "attr": {"padding": {"s": "VkFMSUQ="}, "data_format": {"s": "TkhXQw=="}, "dilations": {"list": {"i": ["1", "1", "1", "1"]}}, "filter_format": {"s": "SFdJTw=="}, "use_cudnn_on_gpu": {"b": true}, "leakyrelu_alpha": {"f": 0.2}, "num_args": {"i": "1"}, "num_host_args": {"i": "0"}, "strides": {"list": {"i": ["1", "1", "1", "1"]}}, "explicit_paddings": {"list": {}}, "fused_ops": {"list": {"s": ["Qmlhc0FkZA=="]}}, "TArgs": {"list": {"type": ["DT_FLOAT"]}}, "T": {"type": "DT_FLOAT"}, "epsilon": {"f": 0.0}}}, {"name": "StatefulPartitionedCall/siren_morpher03/sequential_1/siren_layers.1.0/mul", "op": "Mul", "input": ["StatefulPartitionedCall/siren_morpher03/sequential_1/siren_layers.1.0/mul/x", "StatefulPartitionedCall/siren_morpher03/sequential_1/siren_layers.1.0/linear/BiasAdd"], "attr": {"T": {"type": "DT_FLOAT"}}}, {"name": "StatefulPartitionedCall/siren_morpher03/sequential_1/siren_layers.1.0/Sin", "op": "Sin", "input": ["StatefulPartitionedCall/siren_morpher03/sequential_1/siren_layers.1.0/mul"], "attr": {"T": {"type": "DT_FLOAT"}}}, {"name": "StatefulPartitionedCall/siren_morpher03/sequential_1/siren_layers.1.1/linear/BiasAdd", "op": "_FusedConv2D", "input": ["StatefulPartitionedCall/siren_morpher03/sequential_1/siren_layers.1.0/Sin", "StatefulPartitionedCall/siren_morpher03/sequential_1/siren_layers.1.1/linear/Conv2D/ReadVariableOp", "StatefulPartitionedCall/siren_morpher03/sequential_1/siren_layers.1.1/linear/BiasAdd/ReadVariableOp"], "device": "/device:CPU:0", "attr": {"TArgs": {"list": {"type": ["DT_FLOAT"]}}, "dilations": {"list": {"i": ["1", "1", "1", "1"]}}, "T": {"type": "DT_FLOAT"}, "filter_format": {"s": "SFdJTw=="}, "data_format": {"s": "TkhXQw=="}, "use_cudnn_on_gpu": {"b": true}, "padding": {"s": "VkFMSUQ="}, "explicit_paddings": {"list": {}}, "fused_ops": {"list": {"s": ["Qmlhc0FkZA=="]}}, "num_args": {"i": "1"}, "leakyrelu_alpha": {"f": 0.2}, "epsilon": {"f": 0.0}, "num_host_args": {"i": "0"}, "strides": {"list": {"i": ["1", "1", "1", "1"]}}}}, {"name": "StatefulPartitionedCall/siren_morpher03/sequential_1/siren_layers.1.1/mul", "op": "Mul", "input": ["StatefulPartitionedCall/siren_morpher03/sequential_1/siren_layers.1.1/mul/x", "StatefulPartitionedCall/siren_morpher03/sequential_1/siren_layers.1.1/linear/BiasAdd"], "attr": {"T": {"type": "DT_FLOAT"}}}, {"name": "StatefulPartitionedCall/siren_morpher03/sequential_1/siren_layers.1.1/Sin", "op": "Sin", "input": ["StatefulPartitionedCall/siren_morpher03/sequential_1/siren_layers.1.1/mul"], "attr": {"T": {"type": "DT_FLOAT"}}}, {"name": "StatefulPartitionedCall/siren_morpher03/sequential_1/siren_layers.1.2/linear/BiasAdd", "op": "_FusedConv2D", "input": ["StatefulPartitionedCall/siren_morpher03/sequential_1/siren_layers.1.1/Sin", "StatefulPartitionedCall/siren_morpher03/sequential_1/siren_layers.1.2/linear/Conv2D/ReadVariableOp", "StatefulPartitionedCall/siren_morpher03/sequential_1/siren_layers.1.2/linear/BiasAdd/ReadVariableOp"], "device": "/device:CPU:0", "attr": {"epsilon": {"f": 0.0}, "num_args": {"i": "1"}, "dilations": {"list": {"i": ["1", "1", "1", "1"]}}, "leakyrelu_alpha": {"f": 0.2}, "padding": {"s": "VkFMSUQ="}, "data_format": {"s": "TkhXQw=="}, "TArgs": {"list": {"type": ["DT_FLOAT"]}}, "use_cudnn_on_gpu": {"b": true}, "strides": {"list": {"i": ["1", "1", "1", "1"]}}, "filter_format": {"s": "SFdJTw=="}, "fused_ops": {"list": {"s": ["Qmlhc0FkZA=="]}}, "T": {"type": "DT_FLOAT"}, "num_host_args": {"i": "0"}, "explicit_paddings": {"list": {}}}}, {"name": "StatefulPartitionedCall/siren_morpher03/sequential_1/siren_layers.1.2/mul", "op": "Mul", "input": ["StatefulPartitionedCall/siren_morpher03/sequential_1/siren_layers.1.2/mul/x", "StatefulPartitionedCall/siren_morpher03/sequential_1/siren_layers.1.2/linear/BiasAdd"], "attr": {"T": {"type": "DT_FLOAT"}}}, {"name": "StatefulPartitionedCall/siren_morpher03/sequential_1/siren_layers.1.2/Sin", "op": "Sin", "input": ["StatefulPartitionedCall/siren_morpher03/sequential_1/siren_layers.1.2/mul"], "attr": {"T": {"type": "DT_FLOAT"}}}, {"name": "StatefulPartitionedCall/siren_morpher03/resize_1/ResizeBilinear", "op": "ResizeBilinear", "input": ["StatefulPartitionedCall/siren_morpher03/sequential_1/siren_layers.1.2/Sin", "StatefulPartitionedCall/siren_morpher03/resize_1/size"], "attr": {"align_corners": {"b": false}, "T": {"type": "DT_FLOAT"}, "half_pixel_centers": {"b": true}}}, {"name": "StatefulPartitionedCall/siren_morpher03/concat_4", "op": "ConcatV2", "input": ["StatefulPartitionedCall/siren_morpher03/resize_1/ResizeBilinear", "StatefulPartitionedCall/siren_morpher03/Tile_7", "StatefulPartitionedCall/siren_morpher03/transpose_2", "StatefulPartitionedCall/siren_morpher03/concat_4/axis"], "attr": {"Tidx": {"type": "DT_INT32"}, "N": {"i": "3"}, "T": {"type": "DT_FLOAT"}}}, {"name": "StatefulPartitionedCall/siren_morpher03/sequential_2/siren_layers.2.0/linear/BiasAdd", "op": "_FusedConv2D", "input": ["StatefulPartitionedCall/siren_morpher03/concat_4", "StatefulPartitionedCall/siren_morpher03/sequential_2/siren_layers.2.0/linear/Conv2D/ReadVariableOp", "StatefulPartitionedCall/siren_morpher03/sequential_2/siren_layers.2.0/linear/BiasAdd/ReadVariableOp"], "device": "/device:CPU:0", "attr": {"epsilon": {"f": 0.0}, "dilations": {"list": {"i": ["1", "1", "1", "1"]}}, "T": {"type": "DT_FLOAT"}, "num_args": {"i": "1"}, "leakyrelu_alpha": {"f": 0.2}, "num_host_args": {"i": "0"}, "explicit_paddings": {"list": {}}, "data_format": {"s": "TkhXQw=="}, "fused_ops": {"list": {"s": ["Qmlhc0FkZA=="]}}, "strides": {"list": {"i": ["1", "1", "1", "1"]}}, "filter_format": {"s": "SFdJTw=="}, "use_cudnn_on_gpu": {"b": true}, "padding": {"s": "VkFMSUQ="}, "TArgs": {"list": {"type": ["DT_FLOAT"]}}}}, {"name": "StatefulPartitionedCall/siren_morpher03/sequential_2/siren_layers.2.0/mul", "op": "Mul", "input": ["StatefulPartitionedCall/siren_morpher03/sequential_2/siren_layers.2.0/mul/x", "StatefulPartitionedCall/siren_morpher03/sequential_2/siren_layers.2.0/linear/BiasAdd"], "attr": {"T": {"type": "DT_FLOAT"}}}, {"name": "StatefulPartitionedCall/siren_morpher03/sequential_2/siren_layers.2.0/Sin", "op": "Sin", "input": ["StatefulPartitionedCall/siren_morpher03/sequential_2/siren_layers.2.0/mul"], "attr": {"T": {"type": "DT_FLOAT"}}}, {"name": "StatefulPartitionedCall/siren_morpher03/sequential_2/siren_layers.2.1/linear/BiasAdd", "op": "_FusedConv2D", "input": ["StatefulPartitionedCall/siren_morpher03/sequential_2/siren_layers.2.0/Sin", "StatefulPartitionedCall/siren_morpher03/sequential_2/siren_layers.2.1/linear/Conv2D/ReadVariableOp", "StatefulPartitionedCall/siren_morpher03/sequential_2/siren_layers.2.1/linear/BiasAdd/ReadVariableOp"], "device": "/device:CPU:0", "attr": {"padding": {"s": "VkFMSUQ="}, "data_format": {"s": "TkhXQw=="}, "fused_ops": {"list": {"s": ["Qmlhc0FkZA=="]}}, "use_cudnn_on_gpu": {"b": true}, "epsilon": {"f": 0.0}, "num_args": {"i": "1"}, "TArgs": {"list": {"type": ["DT_FLOAT"]}}, "filter_format": {"s": "SFdJTw=="}, "leakyrelu_alpha": {"f": 0.2}, "dilations": {"list": {"i": ["1", "1", "1", "1"]}}, "T": {"type": "DT_FLOAT"}, "strides": {"list": {"i": ["1", "1", "1", "1"]}}, "explicit_paddings": {"list": {}}, "num_host_args": {"i": "0"}}}, {"name": "StatefulPartitionedCall/siren_morpher03/sequential_2/siren_layers.2.1/mul", "op": "Mul", "input": ["StatefulPartitionedCall/siren_morpher03/sequential_2/siren_layers.2.1/mul/x", "StatefulPartitionedCall/siren_morpher03/sequential_2/siren_layers.2.1/linear/BiasAdd"], "attr": {"T": {"type": "DT_FLOAT"}}}, {"name": "StatefulPartitionedCall/siren_morpher03/sequential_2/siren_layers.2.1/Sin", "op": "Sin", "input": ["StatefulPartitionedCall/siren_morpher03/sequential_2/siren_layers.2.1/mul"], "attr": {"T": {"type": "DT_FLOAT"}}}, {"name": "StatefulPartitionedCall/siren_morpher03/sequential_2/siren_layers.2.2/linear/BiasAdd", "op": "_FusedConv2D", "input": ["StatefulPartitionedCall/siren_morpher03/sequential_2/siren_layers.2.1/Sin", "StatefulPartitionedCall/siren_morpher03/sequential_2/siren_layers.2.2/linear/Conv2D/ReadVariableOp", "StatefulPartitionedCall/siren_morpher03/sequential_2/siren_layers.2.2/linear/BiasAdd/ReadVariableOp"], "device": "/device:CPU:0", "attr": {"leakyrelu_alpha": {"f": 0.2}, "data_format": {"s": "TkhXQw=="}, "use_cudnn_on_gpu": {"b": true}, "num_host_args": {"i": "0"}, "dilations": {"list": {"i": ["1", "1", "1", "1"]}}, "TArgs": {"list": {"type": ["DT_FLOAT"]}}, "epsilon": {"f": 0.0}, "strides": {"list": {"i": ["1", "1", "1", "1"]}}, "fused_ops": {"list": {"s": ["Qmlhc0FkZA=="]}}, "explicit_paddings": {"list": {}}, "T": {"type": "DT_FLOAT"}, "padding": {"s": "VkFMSUQ="}, "filter_format": {"s": "SFdJTw=="}, "num_args": {"i": "1"}}}, {"name": "StatefulPartitionedCall/siren_morpher03/sequential_2/siren_layers.2.2/mul", "op": "Mul", "input": ["StatefulPartitionedCall/siren_morpher03/sequential_2/siren_layers.2.2/mul/x", "StatefulPartitionedCall/siren_morpher03/sequential_2/siren_layers.2.2/linear/BiasAdd"], "attr": {"T": {"type": "DT_FLOAT"}}}, {"name": "StatefulPartitionedCall/siren_morpher03/sequential_2/siren_layers.2.2/Sin", "op": "Sin", "input": ["StatefulPartitionedCall/siren_morpher03/sequential_2/siren_layers.2.2/mul"], "attr": {"T": {"type": "DT_FLOAT"}}}, {"name": "StatefulPartitionedCall/siren_morpher03/last_linear/BiasAdd", "op": "_FusedConv2D", "input": ["StatefulPartitionedCall/siren_morpher03/sequential_2/siren_layers.2.2/Sin", "StatefulPartitionedCall/siren_morpher03/last_linear/Conv2D/ReadVariableOp", "StatefulPartitionedCall/siren_morpher03/last_linear/BiasAdd/ReadVariableOp"], "device": "/device:CPU:0", "attr": {"explicit_paddings": {"list": {}}, "dilations": {"list": {"i": ["1", "1", "1", "1"]}}, "T": {"type": "DT_FLOAT"}, "leakyrelu_alpha": {"f": 0.2}, "use_cudnn_on_gpu": {"b": true}, "padding": {"s": "VkFMSUQ="}, "num_host_args": {"i": "0"}, "TArgs": {"list": {"type": ["DT_FLOAT"]}}, "filter_format": {"s": "SFdJTw=="}, "num_args": {"i": "1"}, "epsilon": {"f": 0.0}, "strides": {"list": {"i": ["1", "1", "1", "1"]}}, "fused_ops": {"list": {"s": ["Qmlhc0FkZA=="]}}, "data_format": {"s": "TkhXQw=="}}}, {"name": "StatefulPartitionedCall/siren_morpher03/strided_slice_8", "op": "StridedSlice", "input": ["StatefulPartitionedCall/siren_morpher03/last_linear/BiasAdd", "StatefulPartitionedCall/siren_morpher03/strided_slice_8/stack", "StatefulPartitionedCall/siren_morpher03/strided_slice_8/stack_1", "StatefulPartitionedCall/siren_morpher03/strided_slice_8/stack_2"], "attr": {"ellipsis_mask": {"i": "0"}, "shrink_axis_mask": {"i": "0"}, "T": {"type": "DT_FLOAT"}, "begin_mask": {"i": "7"}, "Index": {"type": "DT_INT32"}, "new_axis_mask": {"i": "0"}, "end_mask": {"i": "7"}}}, {"name": "StatefulPartitionedCall/siren_morpher03/strided_slice_9", "op": "StridedSlice", "input": ["StatefulPartitionedCall/siren_morpher03/last_linear/BiasAdd", "StatefulPartitionedCall/siren_morpher03/strided_slice_9/stack", "StatefulPartitionedCall/siren_morpher03/strided_slice_9/stack_1", "StatefulPartitionedCall/siren_morpher03/strided_slice_9/stack_2"], "attr": {"ellipsis_mask": {"i": "0"}, "T": {"type": "DT_FLOAT"}, "shrink_axis_mask": {"i": "0"}, "begin_mask": {"i": "7"}, "Index": {"type": "DT_INT32"}, "new_axis_mask": {"i": "0"}, "end_mask": {"i": "15"}}}, {"name": "StatefulPartitionedCall/siren_morpher03/strided_slice_7", "op": "StridedSlice", "input": ["StatefulPartitionedCall/siren_morpher03/last_linear/BiasAdd", "StatefulPartitionedCall/siren_morpher03/strided_slice_7/stack", "StatefulPartitionedCall/siren_morpher03/strided_slice_7/stack_1", "StatefulPartitionedCall/siren_morpher03/strided_slice_7/stack_2"], "attr": {"T": {"type": "DT_FLOAT"}, "begin_mask": {"i": "7"}, "end_mask": {"i": "7"}, "new_axis_mask": {"i": "0"}, "shrink_axis_mask": {"i": "0"}, "Index": {"type": "DT_INT32"}, "ellipsis_mask": {"i": "0"}}}, {"name": "StatefulPartitionedCall/siren_morpher03/sub_10", "op": "Sub", "input": ["StatefulPartitionedCall/siren_morpher03/sub_10/x", "StatefulPartitionedCall/siren_morpher03/strided_slice_8"], "attr": {"T": {"type": "DT_FLOAT"}}}, {"name": "Identity_1", "op": "Identity", "input": ["StatefulPartitionedCall/siren_morpher03/strided_slice_8"], "attr": {"T": {"type": "DT_FLOAT"}}}, {"name": "StatefulPartitionedCall/siren_morpher03/mul_13", "op": "Mul", "input": ["StatefulPartitionedCall/siren_morpher03/strided_slice_8", "StatefulPartitionedCall/siren_morpher03/strided_slice_9"], "attr": {"T": {"type": "DT_FLOAT"}}}, {"name": "Identity_2", "op": "Identity", "input": ["StatefulPartitionedCall/siren_morpher03/strided_slice_9"], "attr": {"T": {"type": "DT_FLOAT"}}}, {"name": "Identity_4", "op": "Identity", "input": ["StatefulPartitionedCall/siren_morpher03/strided_slice_7"], "attr": {"T": {"type": "DT_FLOAT"}}}, {"name": "StatefulPartitionedCall/siren_morpher03/add", "op": "AddV2", "input": ["StatefulPartitionedCall/siren_morpher03/Reshape_10", "StatefulPartitionedCall/siren_morpher03/strided_slice_7"], "attr": {"T": {"type": "DT_FLOAT"}}}, {"name": "StatefulPartitionedCall/siren_morpher03/strided_slice_12", "op": "StridedSlice", "input": ["StatefulPartitionedCall/siren_morpher03/add", "StatefulPartitionedCall/siren_morpher03/strided_slice_12/stack", "StatefulPartitionedCall/siren_morpher03/strided_slice_12/stack_1", "StatefulPartitionedCall/siren_morpher03/strided_slice_12/stack_2"], "attr": {"shrink_axis_mask": {"i": "2"}, "ellipsis_mask": {"i": "1"}, "T": {"type": "DT_FLOAT"}, "end_mask": {"i": "0"}, "Index": {"type": "DT_INT32"}, "new_axis_mask": {"i": "0"}, "begin_mask": {"i": "0"}}}, {"name": "StatefulPartitionedCall/siren_morpher03/strided_slice_11", "op": "StridedSlice", "input": ["StatefulPartitionedCall/siren_morpher03/add", "StatefulPartitionedCall/siren_morpher03/strided_slice_11/stack", "StatefulPartitionedCall/siren_morpher03/strided_slice_11/stack_1", "StatefulPartitionedCall/siren_morpher03/strided_slice_11/stack_2"], "attr": {"Index": {"type": "DT_INT32"}, "begin_mask": {"i": "0"}, "end_mask": {"i": "0"}, "T": {"type": "DT_FLOAT"}, "shrink_axis_mask": {"i": "2"}, "new_axis_mask": {"i": "0"}, "ellipsis_mask": {"i": "1"}}}, {"name": "StatefulPartitionedCall/siren_morpher03/add_2", "op": "AddV2", "input": ["StatefulPartitionedCall/siren_morpher03/strided_slice_12", "StatefulPartitionedCall/siren_morpher03/add_2/y"], "attr": {"T": {"type": "DT_FLOAT"}}}, {"name": "StatefulPartitionedCall/siren_morpher03/add_1", "op": "AddV2", "input": ["StatefulPartitionedCall/siren_morpher03/strided_slice_11", "StatefulPartitionedCall/siren_morpher03/add_1/y"], "attr": {"T": {"type": "DT_FLOAT"}}}, {"name": "StatefulPartitionedCall/siren_morpher03/mul_2", "op": "Mul", "input": ["StatefulPartitionedCall/siren_morpher03/add_2", "StatefulPartitionedCall/siren_morpher03/Cast_1"], "attr": {"T": {"type": "DT_FLOAT"}}}, {"name": "StatefulPartitionedCall/siren_morpher03/mul", "op": "Mul", "input": ["StatefulPartitionedCall/siren_morpher03/add_1", "StatefulPartitionedCall/siren_morpher03/Cast"], "attr": {"T": {"type": "DT_FLOAT"}}}, {"name": "StatefulPartitionedCall/siren_morpher03/sub_1", "op": "Sub", "input": ["StatefulPartitionedCall/siren_morpher03/mul_2", "StatefulPartitionedCall/siren_morpher03/sub_1/y"], "attr": {"T": {"type": "DT_FLOAT"}}}, {"name": "StatefulPartitionedCall/siren_morpher03/sub", "op": "Sub", "input": ["StatefulPartitionedCall/siren_morpher03/mul", "StatefulPartitionedCall/siren_morpher03/sub/y"], "attr": {"T": {"type": "DT_FLOAT"}}}, {"name": "StatefulPartitionedCall/siren_morpher03/mul_3", "op": "Mul", "input": ["StatefulPartitionedCall/siren_morpher03/sub_1", "StatefulPartitionedCall/siren_morpher03/mul_3/y"], "attr": {"T": {"type": "DT_FLOAT"}}}, {"name": "StatefulPartitionedCall/siren_morpher03/mul_1", "op": "Mul", "input": ["StatefulPartitionedCall/siren_morpher03/sub", "StatefulPartitionedCall/siren_morpher03/mul_1/y"], "attr": {"T": {"type": "DT_FLOAT"}}}, {"name": "StatefulPartitionedCall/siren_morpher03/Floor_1", "op": "Floor", "input": ["StatefulPartitionedCall/siren_morpher03/mul_3"], "attr": {"T": {"type": "DT_FLOAT"}}}, {"name": "StatefulPartitionedCall/siren_morpher03/Floor", "op": "Floor", "input": ["StatefulPartitionedCall/siren_morpher03/mul_1"], "attr": {"T": {"type": "DT_FLOAT"}}}, {"name": "StatefulPartitionedCall/siren_morpher03/clip_by_value_2/Minimum", "op": "Minimum", "input": ["StatefulPartitionedCall/siren_morpher03/Floor_1", "StatefulPartitionedCall/siren_morpher03/clip_by_value_2/Minimum/y"], "attr": {"T": {"type": "DT_FLOAT"}}}, {"name": "StatefulPartitionedCall/siren_morpher03/add_4", "op": "AddV2", "input": ["StatefulPartitionedCall/siren_morpher03/Floor_1", "StatefulPartitionedCall/siren_morpher03/add_4/y"], "attr": {"T": {"type": "DT_FLOAT"}}}, {"name": "StatefulPartitionedCall/siren_morpher03/clip_by_value/Minimum", "op": "Minimum", "input": ["StatefulPartitionedCall/siren_morpher03/Floor", "StatefulPartitionedCall/siren_morpher03/clip_by_value/Minimum/y"], "attr": {"T": {"type": "DT_FLOAT"}}}, {"name": "StatefulPartitionedCall/siren_morpher03/add_3", "op": "AddV2", "input": ["StatefulPartitionedCall/siren_morpher03/Floor", "StatefulPartitionedCall/siren_morpher03/add_3/y"], "attr": {"T": {"type": "DT_FLOAT"}}}, {"name": "StatefulPartitionedCall/siren_morpher03/clip_by_value_2", "op": "Maximum", "input": ["StatefulPartitionedCall/siren_morpher03/clip_by_value_2/Minimum", "StatefulPartitionedCall/siren_morpher03/clip_by_value_2/y"], "attr": {"T": {"type": "DT_FLOAT"}}}, {"name": "StatefulPartitionedCall/siren_morpher03/clip_by_value_3/Minimum", "op": "Minimum", "input": ["StatefulPartitionedCall/siren_morpher03/add_4", "StatefulPartitionedCall/siren_morpher03/clip_by_value_3/Minimum/y"], "attr": {"T": {"type": "DT_FLOAT"}}}, {"name": "StatefulPartitionedCall/siren_morpher03/clip_by_value", "op": "Maximum", "input": ["StatefulPartitionedCall/siren_morpher03/clip_by_value/Minimum", "StatefulPartitionedCall/siren_morpher03/clip_by_value/y"], "attr": {"T": {"type": "DT_FLOAT"}}}, {"name": "StatefulPartitionedCall/siren_morpher03/clip_by_value_1/Minimum", "op": "Minimum", "input": ["StatefulPartitionedCall/siren_morpher03/add_3", "StatefulPartitionedCall/siren_morpher03/clip_by_value_1/Minimum/y"], "attr": {"T": {"type": "DT_FLOAT"}}}, {"name": "StatefulPartitionedCall/siren_morpher03/clip_by_value_6/Minimum", "op": "Minimum", "input": ["StatefulPartitionedCall/siren_morpher03/clip_by_value_2", "StatefulPartitionedCall/siren_morpher03/clip_by_value_6/Minimum/y"], "attr": {"T": {"type": "DT_FLOAT"}}}, {"name": "StatefulPartitionedCall/siren_morpher03/clip_by_value_3", "op": "Maximum", "input": ["StatefulPartitionedCall/siren_morpher03/clip_by_value_3/Minimum", "StatefulPartitionedCall/siren_morpher03/clip_by_value_3/y"], "attr": {"T": {"type": "DT_FLOAT"}}}, {"name": "StatefulPartitionedCall/siren_morpher03/clip_by_value_4/Minimum", "op": "Minimum", "input": ["StatefulPartitionedCall/siren_morpher03/clip_by_value", "StatefulPartitionedCall/siren_morpher03/clip_by_value_4/Minimum/y"], "attr": {"T": {"type": "DT_FLOAT"}}}, {"name": "StatefulPartitionedCall/siren_morpher03/clip_by_value_1", "op": "Maximum", "input": ["StatefulPartitionedCall/siren_morpher03/clip_by_value_1/Minimum", "StatefulPartitionedCall/siren_morpher03/clip_by_value_1/y"], "attr": {"T": {"type": "DT_FLOAT"}}}, {"name": "StatefulPartitionedCall/siren_morpher03/clip_by_value_6", "op": "Maximum", "input": ["StatefulPartitionedCall/siren_morpher03/clip_by_value_6/Minimum", "StatefulPartitionedCall/siren_morpher03/clip_by_value_6/y"], "attr": {"T": {"type": "DT_FLOAT"}}}, {"name": "StatefulPartitionedCall/siren_morpher03/clip_by_value_7/Minimum", "op": "Minimum", "input": ["StatefulPartitionedCall/siren_morpher03/clip_by_value_3", "StatefulPartitionedCall/siren_morpher03/clip_by_value_7/Minimum/y"], "attr": {"T": {"type": "DT_FLOAT"}}}, {"name": "StatefulPartitionedCall/siren_morpher03/clip_by_value_4", "op": "Maximum", "input": ["StatefulPartitionedCall/siren_morpher03/clip_by_value_4/Minimum", "StatefulPartitionedCall/siren_morpher03/clip_by_value_4/y"], "attr": {"T": {"type": "DT_FLOAT"}}}, {"name": "StatefulPartitionedCall/siren_morpher03/clip_by_value_5/Minimum", "op": "Minimum", "input": ["StatefulPartitionedCall/siren_morpher03/clip_by_value_1", "StatefulPartitionedCall/siren_morpher03/clip_by_value_5/Minimum/y"], "attr": {"T": {"type": "DT_FLOAT"}}}, {"name": "StatefulPartitionedCall/siren_morpher03/sub_5", "op": "Sub", "input": ["StatefulPartitionedCall/siren_morpher03/mul_3", "StatefulPartitionedCall/siren_morpher03/clip_by_value_6"], "attr": {"T": {"type": "DT_FLOAT"}}}, {"name": "StatefulPartitionedCall/siren_morpher03/sub_9", "op": "Sub", "input": ["StatefulPartitionedCall/siren_morpher03/mul_3", "StatefulPartitionedCall/siren_morpher03/clip_by_value_6"], "attr": {"T": {"type": "DT_FLOAT"}}}, {"name": "StatefulPartitionedCall/siren_morpher03/clip_by_value_7", "op": "Maximum", "input": ["StatefulPartitionedCall/siren_morpher03/clip_by_value_7/Minimum", "StatefulPartitionedCall/siren_morpher03/clip_by_value_7/y"], "attr": {"T": {"type": "DT_FLOAT"}}}, {"name": "StatefulPartitionedCall/siren_morpher03/stack_4", "op": "Pack", "input": ["StatefulPartitionedCall/siren_morpher03/clip_by_value_6", "StatefulPartitionedCall/siren_morpher03/clip_by_value_4"], "attr": {"axis": {"i": "-1"}, "T": {"type": "DT_FLOAT"}, "N": {"i": "2"}}}, {"name": "StatefulPartitionedCall/siren_morpher03/sub_6", "op": "Sub", "input": ["StatefulPartitionedCall/siren_morpher03/mul_1", "StatefulPartitionedCall/siren_morpher03/clip_by_value_4"], "attr": {"T": {"type": "DT_FLOAT"}}}, {"name": "StatefulPartitionedCall/siren_morpher03/sub_8", "op": "Sub", "input": ["StatefulPartitionedCall/siren_morpher03/mul_1", "StatefulPartitionedCall/siren_morpher03/clip_by_value_4"], "attr": {"T": {"type": "DT_FLOAT"}}}, {"name": "StatefulPartitionedCall/siren_morpher03/clip_by_value_5", "op": "Maximum", "input": ["StatefulPartitionedCall/siren_morpher03/clip_by_value_5/Minimum", "StatefulPartitionedCall/siren_morpher03/clip_by_value_5/y"], "attr": {"T": {"type": "DT_FLOAT"}}}, {"name": "StatefulPartitionedCall/siren_morpher03/sub_3", "op": "Sub", "input": ["StatefulPartitionedCall/siren_morpher03/clip_by_value_7", "StatefulPartitionedCall/siren_morpher03/mul_3"], "attr": {"T": {"type": "DT_FLOAT"}}}, {"name": "StatefulPartitionedCall/siren_morpher03/sub_7", "op": "Sub", "input": ["StatefulPartitionedCall/siren_morpher03/clip_by_value_7", "StatefulPartitionedCall/siren_morpher03/mul_3"], "attr": {"T": {"type": "DT_FLOAT"}}}, {"name": "StatefulPartitionedCall/siren_morpher03/stack_5", "op": "Pack", "input": ["StatefulPartitionedCall/siren_morpher03/clip_by_value_7", "StatefulPartitionedCall/siren_morpher03/clip_by_value_4"], "attr": {"N": {"i": "2"}, "axis": {"i": "-1"}, "T": {"type": "DT_FLOAT"}}}, {"name": "StatefulPartitionedCall/siren_morpher03/Cast_2", "op": "Cast", "input": ["StatefulPartitionedCall/siren_morpher03/stack_4"], "attr": {"Truncate": {"b": false}, "DstT": {"type": "DT_INT32"}, "SrcT": {"type": "DT_FLOAT"}}}, {"name": "StatefulPartitionedCall/siren_morpher03/mul_7", "op": "Mul", "input": ["StatefulPartitionedCall/siren_morpher03/sub_8", "StatefulPartitionedCall/siren_morpher03/sub_9"], "attr": {"T": {"type": "DT_FLOAT"}}}, {"name": "StatefulPartitionedCall/siren_morpher03/stack_6", "op": "Pack", "input": ["StatefulPartitionedCall/siren_morpher03/clip_by_value_6", "StatefulPartitionedCall/siren_morpher03/clip_by_value_5"], "attr": {"axis": {"i": "-1"}, "T": {"type": "DT_FLOAT"}, "N": {"i": "2"}}}, {"name": "StatefulPartitionedCall/siren_morpher03/stack_7", "op": "Pack", "input": ["StatefulPartitionedCall/siren_morpher03/clip_by_value_7", "StatefulPartitionedCall/siren_morpher03/clip_by_value_5"], "attr": {"axis": {"i": "-1"}, "N": {"i": "2"}, "T": {"type": "DT_FLOAT"}}}, {"name": "StatefulPartitionedCall/siren_morpher03/sub_2", "op": "Sub", "input": ["StatefulPartitionedCall/siren_morpher03/clip_by_value_5", "StatefulPartitionedCall/siren_morpher03/mul_1"], "attr": {"T": {"type": "DT_FLOAT"}}}, {"name": "StatefulPartitionedCall/siren_morpher03/sub_4", "op": "Sub", "input": ["StatefulPartitionedCall/siren_morpher03/clip_by_value_5", "StatefulPartitionedCall/siren_morpher03/mul_1"], "attr": {"T": {"type": "DT_FLOAT"}}}, {"name": "StatefulPartitionedCall/siren_morpher03/mul_6", "op": "Mul", "input": ["StatefulPartitionedCall/siren_morpher03/sub_6", "StatefulPartitionedCall/siren_morpher03/sub_7"], "attr": {"T": {"type": "DT_FLOAT"}}}, {"name": "StatefulPartitionedCall/siren_morpher03/Cast_3", "op": "Cast", "input": ["StatefulPartitionedCall/siren_morpher03/stack_5"], "attr": {"Truncate": {"b": false}, "SrcT": {"type": "DT_FLOAT"}, "DstT": {"type": "DT_INT32"}}}, {"name": "StatefulPartitionedCall/siren_morpher03/BatchGatherND/Shape_1", "op": "Shape", "input": ["StatefulPartitionedCall/siren_morpher03/Cast_2"], "attr": {"out_type": {"type": "DT_INT32"}, "T": {"type": "DT_INT32"}}, "experimentalType": {"typeId": "TFT_PRODUCT", "args": [{"typeId": "TFT_SHAPE_TENSOR", "args": [{"typeId": "TFT_INT32"}]}]}}, {"name": "StatefulPartitionedCall/siren_morpher03/ExpandDims_8", "op": "ExpandDims", "input": ["StatefulPartitionedCall/siren_morpher03/mul_7", "StatefulPartitionedCall/siren_morpher03/ExpandDims_8/dim"], "attr": {"Tdim": {"type": "DT_INT32"}, "T": {"type": "DT_FLOAT"}}}, {"name": "StatefulPartitionedCall/siren_morpher03/Cast_4", "op": "Cast", "input": ["StatefulPartitionedCall/siren_morpher03/stack_6"], "attr": {"SrcT": {"type": "DT_FLOAT"}, "DstT": {"type": "DT_INT32"}, "Truncate": {"b": false}}}, {"name": "StatefulPartitionedCall/siren_morpher03/Cast_5", "op": "Cast", "input": ["StatefulPartitionedCall/siren_morpher03/stack_7"], "attr": {"DstT": {"type": "DT_INT32"}, "SrcT": {"type": "DT_FLOAT"}, "Truncate": {"b": false}}}, {"name": "StatefulPartitionedCall/siren_morpher03/mul_4", "op": "Mul", "input": ["StatefulPartitionedCall/siren_morpher03/sub_2", "StatefulPartitionedCall/siren_morpher03/sub_3"], "attr": {"T": {"type": "DT_FLOAT"}}}, {"name": "StatefulPartitionedCall/siren_morpher03/mul_5", "op": "Mul", "input": ["StatefulPartitionedCall/siren_morpher03/sub_4", "StatefulPartitionedCall/siren_morpher03/sub_5"], "attr": {"T": {"type": "DT_FLOAT"}}}, {"name": "StatefulPartitionedCall/siren_morpher03/ExpandDims_7", "op": "ExpandDims", "input": ["StatefulPartitionedCall/siren_morpher03/mul_6", "StatefulPartitionedCall/siren_morpher03/ExpandDims_7/dim"], "attr": {"Tdim": {"type": "DT_INT32"}, "T": {"type": "DT_FLOAT"}}}, {"name": "StatefulPartitionedCall/siren_morpher03/BatchGatherND_1/Shape_1", "op": "Shape", "input": ["StatefulPartitionedCall/siren_morpher03/Cast_3"], "attr": {"T": {"type": "DT_INT32"}, "out_type": {"type": "DT_INT32"}}, "experimentalType": {"typeId": "TFT_PRODUCT", "args": [{"typeId": "TFT_SHAPE_TENSOR", "args": [{"typeId": "TFT_INT32"}]}]}}, {"name": "StatefulPartitionedCall/siren_morpher03/BatchGatherND/strided_slice_1", "op": "StridedSlice", "input": ["StatefulPartitionedCall/siren_morpher03/BatchGatherND/Shape_1", "StatefulPartitionedCall/siren_morpher03/BatchGatherND/strided_slice_1/stack", "StatefulPartitionedCall/siren_morpher03/BatchGatherND/strided_slice_1/stack_1", "StatefulPartitionedCall/siren_morpher03/BatchGatherND/strided_slice_1/stack_2"], "attr": {"new_axis_mask": {"i": "0"}, "shrink_axis_mask": {"i": "0"}, "end_mask": {"i": "0"}, "T": {"type": "DT_INT32"}, "begin_mask": {"i": "0"}, "ellipsis_mask": {"i": "0"}, "Index": {"type": "DT_INT32"}}}, {"name": "StatefulPartitionedCall/siren_morpher03/BatchGatherND/strided_slice_4", "op": "StridedSlice", "input": ["StatefulPartitionedCall/siren_morpher03/BatchGatherND/Shape_1", "StatefulPartitionedCall/siren_morpher03/BatchGatherND/strided_slice_4/stack", "StatefulPartitionedCall/siren_morpher03/BatchGatherND/strided_slice_4/stack_1", "StatefulPartitionedCall/siren_morpher03/BatchGatherND/strided_slice_4/stack_2"], "attr": {"T": {"type": "DT_INT32"}, "begin_mask": {"i": "0"}, "Index": {"type": "DT_INT32"}, "ellipsis_mask": {"i": "0"}, "new_axis_mask": {"i": "0"}, "end_mask": {"i": "1"}, "shrink_axis_mask": {"i": "0"}}}, {"name": "StatefulPartitionedCall/siren_morpher03/BatchGatherND_2/Shape_1", "op": "Shape", "input": ["StatefulPartitionedCall/siren_morpher03/Cast_4"], "attr": {"out_type": {"type": "DT_INT32"}, "T": {"type": "DT_INT32"}}, "experimentalType": {"typeId": "TFT_PRODUCT", "args": [{"typeId": "TFT_SHAPE_TENSOR", "args": [{"typeId": "TFT_INT32"}]}]}}, {"name": "StatefulPartitionedCall/siren_morpher03/BatchGatherND_3/Shape_1", "op": "Shape", "input": ["StatefulPartitionedCall/siren_morpher03/Cast_5"], "attr": {"T": {"type": "DT_INT32"}, "out_type": {"type": "DT_INT32"}}, "experimentalType": {"typeId": "TFT_PRODUCT", "args": [{"typeId": "TFT_SHAPE_TENSOR", "args": [{"typeId": "TFT_INT32"}]}]}}, {"name": "StatefulPartitionedCall/siren_morpher03/ExpandDims_5", "op": "ExpandDims", "input": ["StatefulPartitionedCall/siren_morpher03/mul_4", "StatefulPartitionedCall/siren_morpher03/ExpandDims_5/dim"], "attr": {"T": {"type": "DT_FLOAT"}, "Tdim": {"type": "DT_INT32"}}}, {"name": "StatefulPartitionedCall/siren_morpher03/ExpandDims_6", "op": "ExpandDims", "input": ["StatefulPartitionedCall/siren_morpher03/mul_5", "StatefulPartitionedCall/siren_morpher03/ExpandDims_6/dim"], "attr": {"T": {"type": "DT_FLOAT"}, "Tdim": {"type": "DT_INT32"}}}, {"name": "StatefulPartitionedCall/siren_morpher03/BatchGatherND_1/strided_slice_1", "op": "StridedSlice", "input": ["StatefulPartitionedCall/siren_morpher03/BatchGatherND_1/Shape_1", "StatefulPartitionedCall/siren_morpher03/BatchGatherND_1/strided_slice_1/stack", "StatefulPartitionedCall/siren_morpher03/BatchGatherND_1/strided_slice_1/stack_1", "StatefulPartitionedCall/siren_morpher03/BatchGatherND_1/strided_slice_1/stack_2"], "attr": {"end_mask": {"i": "0"}, "T": {"type": "DT_INT32"}, "Index": {"type": "DT_INT32"}, "ellipsis_mask": {"i": "0"}, "shrink_axis_mask": {"i": "0"}, "new_axis_mask": {"i": "0"}, "begin_mask": {"i": "0"}}}, {"name": "StatefulPartitionedCall/siren_morpher03/BatchGatherND_1/strided_slice_4", "op": "StridedSlice", "input": ["StatefulPartitionedCall/siren_morpher03/BatchGatherND_1/Shape_1", "StatefulPartitionedCall/siren_morpher03/BatchGatherND_1/strided_slice_4/stack", "StatefulPartitionedCall/siren_morpher03/BatchGatherND_1/strided_slice_4/stack_1", "StatefulPartitionedCall/siren_morpher03/BatchGatherND_1/strided_slice_4/stack_2"], "attr": {"shrink_axis_mask": {"i": "0"}, "end_mask": {"i": "1"}, "T": {"type": "DT_INT32"}, "new_axis_mask": {"i": "0"}, "ellipsis_mask": {"i": "0"}, "begin_mask": {"i": "0"}, "Index": {"type": "DT_INT32"}}}, {"name": "StatefulPartitionedCall/siren_morpher03/BatchGatherND/concat_1", "op": "ConcatV2", "input": ["StatefulPartitionedCall/siren_morpher03/BatchGatherND/concat_1/values_0", "StatefulPartitionedCall/siren_morpher03/BatchGatherND/strided_slice_1", "StatefulPartitionedCall/siren_morpher03/BatchGatherND/concat_1/values_2", "StatefulPartitionedCall/siren_morpher03/BatchGatherND/concat_1/axis"], "attr": {"N": {"i": "3"}, "T": {"type": "DT_INT32"}, "Tidx": {"type": "DT_INT32"}}}, {"name": "StatefulPartitionedCall/siren_morpher03/BatchGatherND/concat_2", "op": "ConcatV2", "input": ["StatefulPartitionedCall/siren_morpher03/BatchGatherND/concat_2/values_0", "StatefulPartitionedCall/siren_morpher03/BatchGatherND/strided_slice_4", "StatefulPartitionedCall/siren_morpher03/BatchGatherND/concat_2/axis"], "attr": {"T": {"type": "DT_INT32"}, "N": {"i": "2"}, "Tidx": {"type": "DT_INT32"}}}, {"name": "StatefulPartitionedCall/siren_morpher03/BatchGatherND_2/strided_slice_1", "op": "StridedSlice", "input": ["StatefulPartitionedCall/siren_morpher03/BatchGatherND_2/Shape_1", "StatefulPartitionedCall/siren_morpher03/BatchGatherND_2/strided_slice_1/stack", "StatefulPartitionedCall/siren_morpher03/BatchGatherND_2/strided_slice_1/stack_1", "StatefulPartitionedCall/siren_morpher03/BatchGatherND_2/strided_slice_1/stack_2"], "attr": {"begin_mask": {"i": "0"}, "ellipsis_mask": {"i": "0"}, "shrink_axis_mask": {"i": "0"}, "Index": {"type": "DT_INT32"}, "end_mask": {"i": "0"}, "new_axis_mask": {"i": "0"}, "T": {"type": "DT_INT32"}}}, {"name": "StatefulPartitionedCall/siren_morpher03/BatchGatherND_2/strided_slice_4", "op": "StridedSlice", "input": ["StatefulPartitionedCall/siren_morpher03/BatchGatherND_2/Shape_1", "StatefulPartitionedCall/siren_morpher03/BatchGatherND_2/strided_slice_4/stack", "StatefulPartitionedCall/siren_morpher03/BatchGatherND_2/strided_slice_4/stack_1", "StatefulPartitionedCall/siren_morpher03/BatchGatherND_2/strided_slice_4/stack_2"], "attr": {"shrink_axis_mask": {"i": "0"}, "new_axis_mask": {"i": "0"}, "T": {"type": "DT_INT32"}, "Index": {"type": "DT_INT32"}, "begin_mask": {"i": "0"}, "ellipsis_mask": {"i": "0"}, "end_mask": {"i": "1"}}}, {"name": "StatefulPartitionedCall/siren_morpher03/BatchGatherND_3/strided_slice_1", "op": "StridedSlice", "input": ["StatefulPartitionedCall/siren_morpher03/BatchGatherND_3/Shape_1", "StatefulPartitionedCall/siren_morpher03/BatchGatherND_3/strided_slice_1/stack", "StatefulPartitionedCall/siren_morpher03/BatchGatherND_3/strided_slice_1/stack_1", "StatefulPartitionedCall/siren_morpher03/BatchGatherND_3/strided_slice_1/stack_2"], "attr": {"begin_mask": {"i": "0"}, "new_axis_mask": {"i": "0"}, "Index": {"type": "DT_INT32"}, "shrink_axis_mask": {"i": "0"}, "T": {"type": "DT_INT32"}, "end_mask": {"i": "0"}, "ellipsis_mask": {"i": "0"}}}, {"name": "StatefulPartitionedCall/siren_morpher03/BatchGatherND_3/strided_slice_4", "op": "StridedSlice", "input": ["StatefulPartitionedCall/siren_morpher03/BatchGatherND_3/Shape_1", "StatefulPartitionedCall/siren_morpher03/BatchGatherND_3/strided_slice_4/stack", "StatefulPartitionedCall/siren_morpher03/BatchGatherND_3/strided_slice_4/stack_1", "StatefulPartitionedCall/siren_morpher03/BatchGatherND_3/strided_slice_4/stack_2"], "attr": {"end_mask": {"i": "1"}, "Index": {"type": "DT_INT32"}, "shrink_axis_mask": {"i": "0"}, "T": {"type": "DT_INT32"}, "new_axis_mask": {"i": "0"}, "ellipsis_mask": {"i": "0"}, "begin_mask": {"i": "0"}}}, {"name": "StatefulPartitionedCall/siren_morpher03/BatchGatherND_1/concat_1", "op": "ConcatV2", "input": ["StatefulPartitionedCall/siren_morpher03/BatchGatherND_1/concat_1/values_0", "StatefulPartitionedCall/siren_morpher03/BatchGatherND_1/strided_slice_1", "StatefulPartitionedCall/siren_morpher03/BatchGatherND_1/concat_1/values_2", "StatefulPartitionedCall/siren_morpher03/BatchGatherND_1/concat_1/axis"], "attr": {"T": {"type": "DT_INT32"}, "N": {"i": "3"}, "Tidx": {"type": "DT_INT32"}}}, {"name": "StatefulPartitionedCall/siren_morpher03/BatchGatherND_1/concat_2", "op": "ConcatV2", "input": ["StatefulPartitionedCall/siren_morpher03/BatchGatherND_1/concat_2/values_0", "StatefulPartitionedCall/siren_morpher03/BatchGatherND_1/strided_slice_4", "StatefulPartitionedCall/siren_morpher03/BatchGatherND_1/concat_2/axis"], "attr": {"T": {"type": "DT_INT32"}, "N": {"i": "2"}, "Tidx": {"type": "DT_INT32"}}}, {"name": "StatefulPartitionedCall/siren_morpher03/BatchGatherND/Tile", "op": "Tile", "input": ["StatefulPartitionedCall/siren_morpher03/BatchGatherND/Reshape_1", "StatefulPartitionedCall/siren_morpher03/BatchGatherND/concat_1"], "attr": {"Tmultiples": {"type": "DT_INT32"}, "T": {"type": "DT_INT32"}}}, {"name": "StatefulPartitionedCall/siren_morpher03/BatchGatherND/Reshape_2", "op": "Reshape", "input": ["StatefulPartitionedCall/siren_morpher03/Cast_2", "StatefulPartitionedCall/siren_morpher03/BatchGatherND/concat_2"], "attr": {"Tshape": {"type": "DT_INT32"}, "T": {"type": "DT_INT32"}}}, {"name": "StatefulPartitionedCall/siren_morpher03/BatchGatherND_2/concat_1", "op": "ConcatV2", "input": ["StatefulPartitionedCall/siren_morpher03/BatchGatherND_2/concat_1/values_0", "StatefulPartitionedCall/siren_morpher03/BatchGatherND_2/strided_slice_1", "StatefulPartitionedCall/siren_morpher03/BatchGatherND_2/concat_1/values_2", "StatefulPartitionedCall/siren_morpher03/BatchGatherND_2/concat_1/axis"], "attr": {"T": {"type": "DT_INT32"}, "N": {"i": "3"}, "Tidx": {"type": "DT_INT32"}}}, {"name": "StatefulPartitionedCall/siren_morpher03/BatchGatherND_2/concat_2", "op": "ConcatV2", "input": ["StatefulPartitionedCall/siren_morpher03/BatchGatherND_2/concat_2/values_0", "StatefulPartitionedCall/siren_morpher03/BatchGatherND_2/strided_slice_4", "StatefulPartitionedCall/siren_morpher03/BatchGatherND_2/concat_2/axis"], "attr": {"Tidx": {"type": "DT_INT32"}, "N": {"i": "2"}, "T": {"type": "DT_INT32"}}}, {"name": "StatefulPartitionedCall/siren_morpher03/BatchGatherND_3/concat_1", "op": "ConcatV2", "input": ["StatefulPartitionedCall/siren_morpher03/BatchGatherND_3/concat_1/values_0", "StatefulPartitionedCall/siren_morpher03/BatchGatherND_3/strided_slice_1", "StatefulPartitionedCall/siren_morpher03/BatchGatherND_3/concat_1/values_2", "StatefulPartitionedCall/siren_morpher03/BatchGatherND_3/concat_1/axis"], "attr": {"N": {"i": "3"}, "Tidx": {"type": "DT_INT32"}, "T": {"type": "DT_INT32"}}}, {"name": "StatefulPartitionedCall/siren_morpher03/BatchGatherND_3/concat_2", "op": "ConcatV2", "input": ["StatefulPartitionedCall/siren_morpher03/BatchGatherND_3/concat_2/values_0", "StatefulPartitionedCall/siren_morpher03/BatchGatherND_3/strided_slice_4", "StatefulPartitionedCall/siren_morpher03/BatchGatherND_3/concat_2/axis"], "attr": {"T": {"type": "DT_INT32"}, "N": {"i": "2"}, "Tidx": {"type": "DT_INT32"}}}, {"name": "StatefulPartitionedCall/siren_morpher03/BatchGatherND_1/Tile", "op": "Tile", "input": ["StatefulPartitionedCall/siren_morpher03/BatchGatherND_1/Reshape_1", "StatefulPartitionedCall/siren_morpher03/BatchGatherND_1/concat_1"], "attr": {"Tmultiples": {"type": "DT_INT32"}, "T": {"type": "DT_INT32"}}}, {"name": "StatefulPartitionedCall/siren_morpher03/BatchGatherND_1/Reshape_2", "op": "Reshape", "input": ["StatefulPartitionedCall/siren_morpher03/Cast_3", "StatefulPartitionedCall/siren_morpher03/BatchGatherND_1/concat_2"], "attr": {"Tshape": {"type": "DT_INT32"}, "T": {"type": "DT_INT32"}}}, {"name": "StatefulPartitionedCall/siren_morpher03/BatchGatherND/concat_3", "op": "ConcatV2", "input": ["StatefulPartitionedCall/siren_morpher03/BatchGatherND/Tile", "StatefulPartitionedCall/siren_morpher03/BatchGatherND/Reshape_2", "StatefulPartitionedCall/siren_morpher03/BatchGatherND/concat_3/axis"], "attr": {"Tidx": {"type": "DT_INT32"}, "N": {"i": "2"}, "T": {"type": "DT_INT32"}}}, {"name": "StatefulPartitionedCall/siren_morpher03/BatchGatherND_2/Tile", "op": "Tile", "input": ["StatefulPartitionedCall/siren_morpher03/BatchGatherND_2/Reshape_1", "StatefulPartitionedCall/siren_morpher03/BatchGatherND_2/concat_1"], "attr": {"T": {"type": "DT_INT32"}, "Tmultiples": {"type": "DT_INT32"}}}, {"name": "StatefulPartitionedCall/siren_morpher03/BatchGatherND_2/Reshape_2", "op": "Reshape", "input": ["StatefulPartitionedCall/siren_morpher03/Cast_4", "StatefulPartitionedCall/siren_morpher03/BatchGatherND_2/concat_2"], "attr": {"Tshape": {"type": "DT_INT32"}, "T": {"type": "DT_INT32"}}}, {"name": "StatefulPartitionedCall/siren_morpher03/BatchGatherND_3/Tile", "op": "Tile", "input": ["StatefulPartitionedCall/siren_morpher03/BatchGatherND_3/Reshape_1", "StatefulPartitionedCall/siren_morpher03/BatchGatherND_3/concat_1"], "attr": {"T": {"type": "DT_INT32"}, "Tmultiples": {"type": "DT_INT32"}}}, {"name": "StatefulPartitionedCall/siren_morpher03/BatchGatherND_3/Reshape_2", "op": "Reshape", "input": ["StatefulPartitionedCall/siren_morpher03/Cast_5", "StatefulPartitionedCall/siren_morpher03/BatchGatherND_3/concat_2"], "attr": {"T": {"type": "DT_INT32"}, "Tshape": {"type": "DT_INT32"}}}, {"name": "StatefulPartitionedCall/siren_morpher03/BatchGatherND_1/concat_3", "op": "ConcatV2", "input": ["StatefulPartitionedCall/siren_morpher03/BatchGatherND_1/Tile", "StatefulPartitionedCall/siren_morpher03/BatchGatherND_1/Reshape_2", "StatefulPartitionedCall/siren_morpher03/BatchGatherND_1/concat_3/axis"], "attr": {"T": {"type": "DT_INT32"}, "Tidx": {"type": "DT_INT32"}, "N": {"i": "2"}}}, {"name": "StatefulPartitionedCall/siren_morpher03/BatchGatherND/GatherNd", "op": "GatherNd", "input": ["args_0", "StatefulPartitionedCall/siren_morpher03/BatchGatherND/concat_3"], "attr": {"Tparams": {"type": "DT_FLOAT"}, "Tindices": {"type": "DT_INT32"}}}, {"name": "StatefulPartitionedCall/siren_morpher03/BatchGatherND_2/concat_3", "op": "ConcatV2", "input": ["StatefulPartitionedCall/siren_morpher03/BatchGatherND_2/Tile", "StatefulPartitionedCall/siren_morpher03/BatchGatherND_2/Reshape_2", "StatefulPartitionedCall/siren_morpher03/BatchGatherND_2/concat_3/axis"], "attr": {"Tidx": {"type": "DT_INT32"}, "N": {"i": "2"}, "T": {"type": "DT_INT32"}}}, {"name": "StatefulPartitionedCall/siren_morpher03/BatchGatherND_3/concat_3", "op": "ConcatV2", "input": ["StatefulPartitionedCall/siren_morpher03/BatchGatherND_3/Tile", "StatefulPartitionedCall/siren_morpher03/BatchGatherND_3/Reshape_2", "StatefulPartitionedCall/siren_morpher03/BatchGatherND_3/concat_3/axis"], "attr": {"T": {"type": "DT_INT32"}, "N": {"i": "2"}, "Tidx": {"type": "DT_INT32"}}}, {"name": "StatefulPartitionedCall/siren_morpher03/BatchGatherND_1/GatherNd", "op": "GatherNd", "input": ["args_0", "StatefulPartitionedCall/siren_morpher03/BatchGatherND_1/concat_3"], "attr": {"Tindices": {"type": "DT_INT32"}, "Tparams": {"type": "DT_FLOAT"}}}, {"name": "StatefulPartitionedCall/siren_morpher03/BatchGatherND/Shape_3", "op": "Shape", "input": ["StatefulPartitionedCall/siren_morpher03/BatchGatherND/GatherNd"], "attr": {"out_type": {"type": "DT_INT32"}, "T": {"type": "DT_FLOAT"}}, "experimentalType": {"typeId": "TFT_PRODUCT", "args": [{"typeId": "TFT_SHAPE_TENSOR", "args": [{"typeId": "TFT_INT32"}]}]}}, {"name": "StatefulPartitionedCall/siren_morpher03/BatchGatherND_2/GatherNd", "op": "GatherNd", "input": ["args_0", "StatefulPartitionedCall/siren_morpher03/BatchGatherND_2/concat_3"], "attr": {"Tindices": {"type": "DT_INT32"}, "Tparams": {"type": "DT_FLOAT"}}}, {"name": "StatefulPartitionedCall/siren_morpher03/BatchGatherND_3/GatherNd", "op": "GatherNd", "input": ["args_0", "StatefulPartitionedCall/siren_morpher03/BatchGatherND_3/concat_3"], "attr": {"Tindices": {"type": "DT_INT32"}, "Tparams": {"type": "DT_FLOAT"}}}, {"name": "StatefulPartitionedCall/siren_morpher03/BatchGatherND_1/Shape_3", "op": "Shape", "input": ["StatefulPartitionedCall/siren_morpher03/BatchGatherND_1/GatherNd"], "attr": {"out_type": {"type": "DT_INT32"}, "T": {"type": "DT_FLOAT"}}, "experimentalType": {"typeId": "TFT_PRODUCT", "args": [{"typeId": "TFT_SHAPE_TENSOR", "args": [{"typeId": "TFT_INT32"}]}]}}, {"name": "StatefulPartitionedCall/siren_morpher03/BatchGatherND/strided_slice_5", "op": "StridedSlice", "input": ["StatefulPartitionedCall/siren_morpher03/BatchGatherND/Shape_3", "StatefulPartitionedCall/siren_morpher03/BatchGatherND/strided_slice_5/stack", "StatefulPartitionedCall/siren_morpher03/BatchGatherND/strided_slice_5/stack_1", "StatefulPartitionedCall/siren_morpher03/BatchGatherND/strided_slice_5/stack_2"], "attr": {"end_mask": {"i": "1"}, "new_axis_mask": {"i": "0"}, "T": {"type": "DT_INT32"}, "shrink_axis_mask": {"i": "0"}, "begin_mask": {"i": "0"}, "ellipsis_mask": {"i": "0"}, "Index": {"type": "DT_INT32"}}}, {"name": "StatefulPartitionedCall/siren_morpher03/BatchGatherND_2/Shape_3", "op": "Shape", "input": ["StatefulPartitionedCall/siren_morpher03/BatchGatherND_2/GatherNd"], "attr": {"T": {"type": "DT_FLOAT"}, "out_type": {"type": "DT_INT32"}}, "experimentalType": {"typeId": "TFT_PRODUCT", "args": [{"typeId": "TFT_SHAPE_TENSOR", "args": [{"typeId": "TFT_INT32"}]}]}}, {"name": "StatefulPartitionedCall/siren_morpher03/BatchGatherND_3/Shape_3", "op": "Shape", "input": ["StatefulPartitionedCall/siren_morpher03/BatchGatherND_3/GatherNd"], "attr": {"out_type": {"type": "DT_INT32"}, "T": {"type": "DT_FLOAT"}}, "experimentalType": {"typeId": "TFT_PRODUCT", "args": [{"typeId": "TFT_SHAPE_TENSOR", "args": [{"typeId": "TFT_INT32"}]}]}}, {"name": "StatefulPartitionedCall/siren_morpher03/BatchGatherND_1/strided_slice_5", "op": "StridedSlice", "input": ["StatefulPartitionedCall/siren_morpher03/BatchGatherND_1/Shape_3", "StatefulPartitionedCall/siren_morpher03/BatchGatherND_1/strided_slice_5/stack", "StatefulPartitionedCall/siren_morpher03/BatchGatherND_1/strided_slice_5/stack_1", "StatefulPartitionedCall/siren_morpher03/BatchGatherND_1/strided_slice_5/stack_2"], "attr": {"new_axis_mask": {"i": "0"}, "Index": {"type": "DT_INT32"}, "shrink_axis_mask": {"i": "0"}, "end_mask": {"i": "1"}, "ellipsis_mask": {"i": "0"}, "T": {"type": "DT_INT32"}, "begin_mask": {"i": "0"}}}, {"name": "StatefulPartitionedCall/siren_morpher03/BatchGatherND/concat_4", "op": "ConcatV2", "input": ["StatefulPartitionedCall/siren_morpher03/BatchGatherND/strided_slice", "StatefulPartitionedCall/siren_morpher03/BatchGatherND/strided_slice_5", "StatefulPartitionedCall/siren_morpher03/BatchGatherND/concat_4/axis"], "attr": {"N": {"i": "2"}, "T": {"type": "DT_INT32"}, "Tidx": {"type": "DT_INT32"}}}, {"name": "StatefulPartitionedCall/siren_morpher03/BatchGatherND_2/strided_slice_5", "op": "StridedSlice", "input": ["StatefulPartitionedCall/siren_morpher03/BatchGatherND_2/Shape_3", "StatefulPartitionedCall/siren_morpher03/BatchGatherND_2/strided_slice_5/stack", "StatefulPartitionedCall/siren_morpher03/BatchGatherND_2/strided_slice_5/stack_1", "StatefulPartitionedCall/siren_morpher03/BatchGatherND_2/strided_slice_5/stack_2"], "attr": {"new_axis_mask": {"i": "0"}, "end_mask": {"i": "1"}, "begin_mask": {"i": "0"}, "shrink_axis_mask": {"i": "0"}, "ellipsis_mask": {"i": "0"}, "T": {"type": "DT_INT32"}, "Index": {"type": "DT_INT32"}}}, {"name": "StatefulPartitionedCall/siren_morpher03/BatchGatherND_3/strided_slice_5", "op": "StridedSlice", "input": ["StatefulPartitionedCall/siren_morpher03/BatchGatherND_3/Shape_3", "StatefulPartitionedCall/siren_morpher03/BatchGatherND_3/strided_slice_5/stack", "StatefulPartitionedCall/siren_morpher03/BatchGatherND_3/strided_slice_5/stack_1", "StatefulPartitionedCall/siren_morpher03/BatchGatherND_3/strided_slice_5/stack_2"], "attr": {"end_mask": {"i": "1"}, "shrink_axis_mask": {"i": "0"}, "T": {"type": "DT_INT32"}, "begin_mask": {"i": "0"}, "new_axis_mask": {"i": "0"}, "ellipsis_mask": {"i": "0"}, "Index": {"type": "DT_INT32"}}}, {"name": "StatefulPartitionedCall/siren_morpher03/BatchGatherND_1/concat_4", "op": "ConcatV2", "input": ["StatefulPartitionedCall/siren_morpher03/BatchGatherND_1/strided_slice", "StatefulPartitionedCall/siren_morpher03/BatchGatherND_1/strided_slice_5", "StatefulPartitionedCall/siren_morpher03/BatchGatherND_1/concat_4/axis"], "attr": {"T": {"type": "DT_INT32"}, "Tidx": {"type": "DT_INT32"}, "N": {"i": "2"}}}, {"name": "StatefulPartitionedCall/siren_morpher03/BatchGatherND/Reshape_3", "op": "Reshape", "input": ["StatefulPartitionedCall/siren_morpher03/BatchGatherND/GatherNd", "StatefulPartitionedCall/siren_morpher03/BatchGatherND/concat_4"], "attr": {"T": {"type": "DT_FLOAT"}, "Tshape": {"type": "DT_INT32"}}}, {"name": "StatefulPartitionedCall/siren_morpher03/BatchGatherND_2/concat_4", "op": "ConcatV2", "input": ["StatefulPartitionedCall/siren_morpher03/BatchGatherND_2/strided_slice", "StatefulPartitionedCall/siren_morpher03/BatchGatherND_2/strided_slice_5", "StatefulPartitionedCall/siren_morpher03/BatchGatherND_2/concat_4/axis"], "attr": {"T": {"type": "DT_INT32"}, "Tidx": {"type": "DT_INT32"}, "N": {"i": "2"}}}, {"name": "StatefulPartitionedCall/siren_morpher03/BatchGatherND_3/concat_4", "op": "ConcatV2", "input": ["StatefulPartitionedCall/siren_morpher03/BatchGatherND_3/strided_slice", "StatefulPartitionedCall/siren_morpher03/BatchGatherND_3/strided_slice_5", "StatefulPartitionedCall/siren_morpher03/BatchGatherND_3/concat_4/axis"], "attr": {"Tidx": {"type": "DT_INT32"}, "T": {"type": "DT_INT32"}, "N": {"i": "2"}}}, {"name": "StatefulPartitionedCall/siren_morpher03/BatchGatherND_1/Reshape_3", "op": "Reshape", "input": ["StatefulPartitionedCall/siren_morpher03/BatchGatherND_1/GatherNd", "StatefulPartitionedCall/siren_morpher03/BatchGatherND_1/concat_4"], "attr": {"Tshape": {"type": "DT_INT32"}, "T": {"type": "DT_FLOAT"}}}, {"name": "StatefulPartitionedCall/siren_morpher03/mul_8", "op": "Mul", "input": ["StatefulPartitionedCall/siren_morpher03/ExpandDims_5", "StatefulPartitionedCall/siren_morpher03/BatchGatherND/Reshape_3"], "attr": {"T": {"type": "DT_FLOAT"}}}, {"name": "StatefulPartitionedCall/siren_morpher03/BatchGatherND_2/Reshape_3", "op": "Reshape", "input": ["StatefulPartitionedCall/siren_morpher03/BatchGatherND_2/GatherNd", "StatefulPartitionedCall/siren_morpher03/BatchGatherND_2/concat_4"], "attr": {"T": {"type": "DT_FLOAT"}, "Tshape": {"type": "DT_INT32"}}}, {"name": "StatefulPartitionedCall/siren_morpher03/BatchGatherND_3/Reshape_3", "op": "Reshape", "input": ["StatefulPartitionedCall/siren_morpher03/BatchGatherND_3/GatherNd", "StatefulPartitionedCall/siren_morpher03/BatchGatherND_3/concat_4"], "attr": {"T": {"type": "DT_FLOAT"}, "Tshape": {"type": "DT_INT32"}}}, {"name": "StatefulPartitionedCall/siren_morpher03/mul_9", "op": "Mul", "input": ["StatefulPartitionedCall/siren_morpher03/ExpandDims_6", "StatefulPartitionedCall/siren_morpher03/BatchGatherND_1/Reshape_3"], "attr": {"T": {"type": "DT_FLOAT"}}}, {"name": "StatefulPartitionedCall/siren_morpher03/mul_10", "op": "Mul", "input": ["StatefulPartitionedCall/siren_morpher03/ExpandDims_7", "StatefulPartitionedCall/siren_morpher03/BatchGatherND_2/Reshape_3"], "attr": {"T": {"type": "DT_FLOAT"}}}, {"name": "StatefulPartitionedCall/siren_morpher03/mul_11", "op": "Mul", "input": ["StatefulPartitionedCall/siren_morpher03/ExpandDims_8", "StatefulPartitionedCall/siren_morpher03/BatchGatherND_3/Reshape_3"], "attr": {"T": {"type": "DT_FLOAT"}}}, {"name": "StatefulPartitionedCall/siren_morpher03/add_5", "op": "AddV2", "input": ["StatefulPartitionedCall/siren_morpher03/mul_8", "StatefulPartitionedCall/siren_morpher03/mul_9"], "attr": {"T": {"type": "DT_FLOAT"}}}, {"name": "StatefulPartitionedCall/siren_morpher03/add_6", "op": "AddV2", "input": ["StatefulPartitionedCall/siren_morpher03/add_5", "StatefulPartitionedCall/siren_morpher03/mul_10"], "attr": {"T": {"type": "DT_FLOAT"}}}, {"name": "StatefulPartitionedCall/siren_morpher03/add_7", "op": "AddV2", "input": ["StatefulPartitionedCall/siren_morpher03/add_6", "StatefulPartitionedCall/siren_morpher03/mul_11"], "attr": {"T": {"type": "DT_FLOAT"}}}, {"name": "StatefulPartitionedCall/siren_morpher03/mul_12", "op": "Mul", "input": ["StatefulPartitionedCall/siren_morpher03/sub_10", "StatefulPartitionedCall/siren_morpher03/add_7"], "attr": {"T": {"type": "DT_FLOAT"}}}, {"name": "Identity_3", "op": "Identity", "input": ["StatefulPartitionedCall/siren_morpher03/add_7"], "attr": {"T": {"type": "DT_FLOAT"}}}, {"name": "StatefulPartitionedCall/siren_morpher03/add_8", "op": "AddV2", "input": ["StatefulPartitionedCall/siren_morpher03/mul_12", "StatefulPartitionedCall/siren_morpher03/mul_13"], "attr": {"T": {"type": "DT_FLOAT"}}}, {"name": "Identity", "op": "Identity", "input": ["StatefulPartitionedCall/siren_morpher03/add_8"], "attr": {"T": {"type": "DT_FLOAT"}}}], "library": {}, "versions": {"producer": 1482}}, "weightsManifest": [{"paths": ["group1-shard1of2.bin", "group1-shard2of2.bin"], "weights": [{"name": "StatefulPartitionedCall/siren_morpher03/sub_10/x", "shape": [], "dtype": "float32"}, {"name": "StatefulPartitionedCall/siren_morpher03/strided_slice_8/stack", "shape": [4], "dtype": "int32"}, {"name": "StatefulPartitionedCall/siren_morpher03/strided_slice_8/stack_1", "shape": [4], "dtype": "int32"}, {"name": "StatefulPartitionedCall/siren_morpher03/strided_slice_8/stack_2", "shape": [4], "dtype": "int32"}, {"name": "StatefulPartitionedCall/siren_morpher03/strided_slice_9/stack", "shape": [4], "dtype": "int32"}, {"name": "StatefulPartitionedCall/siren_morpher03/strided_slice_9/stack_1", "shape": [4], "dtype": "int32"}, {"name": "StatefulPartitionedCall/siren_morpher03/strided_slice_9/stack_2", "shape": [4], "dtype": "int32"}, {"name": "StatefulPartitionedCall/siren_morpher03/ExpandDims_5/dim", "shape": [], "dtype": "int32"}, {"name": "StatefulPartitionedCall/siren_morpher03/BatchGatherND/strided_slice_2/stack", "shape": [1], "dtype": "int32"}, {"name": "StatefulPartitionedCall/siren_morpher03/BatchGatherND/strided_slice_2/stack_1", "shape": [1], "dtype": "int32"}, {"name": "StatefulPartitionedCall/siren_morpher03/BatchGatherND/strided_slice_2/stack_2", "shape": [1], "dtype": "int32"}, {"name": "StatefulPartitionedCall/siren_morpher03/BatchGatherND/ones", "shape": [2], "dtype": "int32"}, {"name": "StatefulPartitionedCall/siren_morpher03/BatchGatherND/Range/start", "shape": [], "dtype": "int32"}, {"name": "StatefulPartitionedCall/siren_morpher03/BatchGatherND/Range/delta", "shape": [], "dtype": "int32"}, {"name": "StatefulPartitionedCall/siren_morpher03/BatchGatherND/meshgrid/ones/Const", "shape": [], "dtype": "int32"}, {"name": "StatefulPartitionedCall/siren_morpher03/BatchGatherND/transpose/perm", "shape": [2], "dtype": "int32"}, {"name": "StatefulPartitionedCall/siren_morpher03/BatchGatherND/strided_slice_3/stack", "shape": [1], "dtype": "int32"}, {"name": "StatefulPartitionedCall/siren_morpher03/BatchGatherND/strided_slice_3/stack_1", "shape": [1], "dtype": "int32"}, {"name": "StatefulPartitionedCall/siren_morpher03/BatchGatherND/strided_slice_3/stack_2", "shape": [1], "dtype": "int32"}, {"name": "StatefulPartitionedCall/siren_morpher03/BatchGatherND/concat/axis", "shape": [], "dtype": "int32"}, {"name": "StatefulPartitionedCall/siren_morpher03/BatchGatherND/concat_1/values_0", "shape": [1], "dtype": "int32"}, {"name": "StatefulPartitionedCall/siren_morpher03/BatchGatherND/strided_slice_1/stack", "shape": [1], "dtype": "int32"}, {"name": "StatefulPartitionedCall/siren_morpher03/BatchGatherND/strided_slice_1/stack_1", "shape": [1], "dtype": "int32"}, {"name": "StatefulPartitionedCall/siren_morpher03/BatchGatherND/strided_slice_1/stack_2", "shape": [1], "dtype": "int32"}, {"name": "StatefulPartitionedCall/siren_morpher03/BatchGatherND/concat_1/values_2", "shape": [1], "dtype": "int32"}, {"name": "StatefulPartitionedCall/siren_morpher03/BatchGatherND/concat_1/axis", "shape": [], "dtype": "int32"}, {"name": "StatefulPartitionedCall/siren_morpher03/BatchGatherND/strided_slice/stack", "shape": [1], "dtype": "int32"}, {"name": "StatefulPartitionedCall/siren_morpher03/BatchGatherND/strided_slice/stack_1", "shape": [1], "dtype": "int32"}, {"name": "StatefulPartitionedCall/siren_morpher03/BatchGatherND/strided_slice/stack_2", "shape": [1], "dtype": "int32"}, {"name": "StatefulPartitionedCall/siren_morpher03/BatchGatherND/Prod/reduction_indices", "shape": [1], "dtype": "int32"}, {"name": "StatefulPartitionedCall/siren_morpher03/BatchGatherND/strided_slice_4/stack", "shape": [1], "dtype": "int32"}, {"name": "StatefulPartitionedCall/siren_morpher03/BatchGatherND/strided_slice_4/stack_1", "shape": [1], "dtype": "int32"}, {"name": "StatefulPartitionedCall/siren_morpher03/BatchGatherND/strided_slice_4/stack_2", "shape": [1], "dtype": "int32"}, {"name": "StatefulPartitionedCall/siren_morpher03/BatchGatherND/concat_2/axis", "shape": [], "dtype": "int32"}, {"name": "StatefulPartitionedCall/siren_morpher03/BatchGatherND/concat_3/axis", "shape": [], "dtype": "int32"}, {"name": "StatefulPartitionedCall/siren_morpher03/BatchGatherND/strided_slice_5/stack", "shape": [1], "dtype": "int32"}, {"name": "StatefulPartitionedCall/siren_morpher03/BatchGatherND/strided_slice_5/stack_1", "shape": [1], "dtype": "int32"}, {"name": "StatefulPartitionedCall/siren_morpher03/BatchGatherND/strided_slice_5/stack_2", "shape": [1], "dtype": "int32"}, {"name": "StatefulPartitionedCall/siren_morpher03/BatchGatherND/concat_4/axis", "shape": [], "dtype": "int32"}, {"name": "StatefulPartitionedCall/siren_morpher03/ExpandDims_6/dim", "shape": [], "dtype": "int32"}, {"name": "StatefulPartitionedCall/siren_morpher03/BatchGatherND_1/strided_slice_2/stack", "shape": [1], "dtype": "int32"}, {"name": "StatefulPartitionedCall/siren_morpher03/BatchGatherND_1/strided_slice_2/stack_1", "shape": [1], "dtype": "int32"}, {"name": "StatefulPartitionedCall/siren_morpher03/BatchGatherND_1/strided_slice_2/stack_2", "shape": [1], "dtype": "int32"}, {"name": "StatefulPartitionedCall/siren_morpher03/BatchGatherND_1/ones", "shape": [2], "dtype": "int32"}, {"name": "StatefulPartitionedCall/siren_morpher03/BatchGatherND_1/Range/start", "shape": [], "dtype": "int32"}, {"name": "StatefulPartitionedCall/siren_morpher03/BatchGatherND_1/Range/delta", "shape": [], "dtype": "int32"}, {"name": "StatefulPartitionedCall/siren_morpher03/BatchGatherND_1/meshgrid/ones/Const", "shape": [], "dtype": "int32"}, {"name": "StatefulPartitionedCall/siren_morpher03/BatchGatherND_1/transpose/perm", "shape": [2], "dtype": "int32"}, {"name": "StatefulPartitionedCall/siren_morpher03/BatchGatherND_1/strided_slice_3/stack", "shape": [1], "dtype": "int32"}, {"name": "StatefulPartitionedCall/siren_morpher03/BatchGatherND_1/strided_slice_3/stack_1", "shape": [1], "dtype": "int32"}, {"name": "StatefulPartitionedCall/siren_morpher03/BatchGatherND_1/strided_slice_3/stack_2", "shape": [1], "dtype": "int32"}, {"name": "StatefulPartitionedCall/siren_morpher03/BatchGatherND_1/concat/axis", "shape": [], "dtype": "int32"}, {"name": "StatefulPartitionedCall/siren_morpher03/BatchGatherND_1/concat_1/values_0", "shape": [1], "dtype": "int32"}, {"name": "StatefulPartitionedCall/siren_morpher03/BatchGatherND_1/strided_slice_1/stack", "shape": [1], "dtype": "int32"}, {"name": "StatefulPartitionedCall/siren_morpher03/BatchGatherND_1/strided_slice_1/stack_1", "shape": [1], "dtype": "int32"}, {"name": "StatefulPartitionedCall/siren_morpher03/BatchGatherND_1/strided_slice_1/stack_2", "shape": [1], "dtype": "int32"}, {"name": "StatefulPartitionedCall/siren_morpher03/BatchGatherND_1/concat_1/values_2", "shape": [1], "dtype": "int32"}, {"name": "StatefulPartitionedCall/siren_morpher03/BatchGatherND_1/concat_1/axis", "shape": [], "dtype": "int32"}, {"name": "StatefulPartitionedCall/siren_morpher03/BatchGatherND_1/strided_slice/stack", "shape": [1], "dtype": "int32"}, {"name": "StatefulPartitionedCall/siren_morpher03/BatchGatherND_1/strided_slice/stack_1", "shape": [1], "dtype": "int32"}, {"name": "StatefulPartitionedCall/siren_morpher03/BatchGatherND_1/strided_slice/stack_2", "shape": [1], "dtype": "int32"}, {"name": "StatefulPartitionedCall/siren_morpher03/BatchGatherND_1/Prod/reduction_indices", "shape": [1], "dtype": "int32"}, {"name": "StatefulPartitionedCall/siren_morpher03/BatchGatherND_1/strided_slice_4/stack", "shape": [1], "dtype": "int32"}, {"name": "StatefulPartitionedCall/siren_morpher03/BatchGatherND_1/strided_slice_4/stack_1", "shape": [1], "dtype": "int32"}, {"name": "StatefulPartitionedCall/siren_morpher03/BatchGatherND_1/strided_slice_4/stack_2", "shape": [1], "dtype": "int32"}, {"name": "StatefulPartitionedCall/siren_morpher03/BatchGatherND_1/concat_2/axis", "shape": [], "dtype": "int32"}, {"name": "StatefulPartitionedCall/siren_morpher03/BatchGatherND_1/concat_3/axis", "shape": [], "dtype": "int32"}, {"name": "StatefulPartitionedCall/siren_morpher03/BatchGatherND_1/strided_slice_5/stack", "shape": [1], "dtype": "int32"}, {"name": "StatefulPartitionedCall/siren_morpher03/BatchGatherND_1/strided_slice_5/stack_1", "shape": [1], "dtype": "int32"}, {"name": "StatefulPartitionedCall/siren_morpher03/BatchGatherND_1/strided_slice_5/stack_2", "shape": [1], "dtype": "int32"}, {"name": "StatefulPartitionedCall/siren_morpher03/BatchGatherND_1/concat_4/axis", "shape": [], "dtype": "int32"}, {"name": "StatefulPartitionedCall/siren_morpher03/ExpandDims_7/dim", "shape": [], "dtype": "int32"}, {"name": "StatefulPartitionedCall/siren_morpher03/BatchGatherND_2/strided_slice_2/stack", "shape": [1], "dtype": "int32"}, {"name": "StatefulPartitionedCall/siren_morpher03/BatchGatherND_2/strided_slice_2/stack_1", "shape": [1], "dtype": "int32"}, {"name": "StatefulPartitionedCall/siren_morpher03/BatchGatherND_2/strided_slice_2/stack_2", "shape": [1], "dtype": "int32"}, {"name": "StatefulPartitionedCall/siren_morpher03/BatchGatherND_2/ones", "shape": [2], "dtype": "int32"}, {"name": "StatefulPartitionedCall/siren_morpher03/BatchGatherND_2/Range/start", "shape": [], "dtype": "int32"}, {"name": "StatefulPartitionedCall/siren_morpher03/BatchGatherND_2/Range/delta", "shape": [], "dtype": "int32"}, {"name": "StatefulPartitionedCall/siren_morpher03/BatchGatherND_2/meshgrid/ones/Const", "shape": [], "dtype": "int32"}, {"name": "StatefulPartitionedCall/siren_morpher03/BatchGatherND_2/transpose/perm", "shape": [2], "dtype": "int32"}, {"name": "StatefulPartitionedCall/siren_morpher03/BatchGatherND_2/strided_slice_3/stack", "shape": [1], "dtype": "int32"}, {"name": "StatefulPartitionedCall/siren_morpher03/BatchGatherND_2/strided_slice_3/stack_1", "shape": [1], "dtype": "int32"}, {"name": "StatefulPartitionedCall/siren_morpher03/BatchGatherND_2/strided_slice_3/stack_2", "shape": [1], "dtype": "int32"}, {"name": "StatefulPartitionedCall/siren_morpher03/BatchGatherND_2/concat/axis", "shape": [], "dtype": "int32"}, {"name": "StatefulPartitionedCall/siren_morpher03/BatchGatherND_2/concat_1/values_0", "shape": [1], "dtype": "int32"}, {"name": "StatefulPartitionedCall/siren_morpher03/BatchGatherND_2/strided_slice_1/stack", "shape": [1], "dtype": "int32"}, {"name": "StatefulPartitionedCall/siren_morpher03/BatchGatherND_2/strided_slice_1/stack_1", "shape": [1], "dtype": "int32"}, {"name": "StatefulPartitionedCall/siren_morpher03/BatchGatherND_2/strided_slice_1/stack_2", "shape": [1], "dtype": "int32"}, {"name": "StatefulPartitionedCall/siren_morpher03/BatchGatherND_2/concat_1/values_2", "shape": [1], "dtype": "int32"}, {"name": "StatefulPartitionedCall/siren_morpher03/BatchGatherND_2/concat_1/axis", "shape": [], "dtype": "int32"}, {"name": "StatefulPartitionedCall/siren_morpher03/BatchGatherND_2/strided_slice/stack", "shape": [1], "dtype": "int32"}, {"name": "StatefulPartitionedCall/siren_morpher03/BatchGatherND_2/strided_slice/stack_1", "shape": [1], "dtype": "int32"}, {"name": "StatefulPartitionedCall/siren_morpher03/BatchGatherND_2/strided_slice/stack_2", "shape": [1], "dtype": "int32"}, {"name": "StatefulPartitionedCall/siren_morpher03/BatchGatherND_2/Prod/reduction_indices", "shape": [1], "dtype": "int32"}, {"name": "StatefulPartitionedCall/siren_morpher03/BatchGatherND_2/strided_slice_4/stack", "shape": [1], "dtype": "int32"}, {"name": "StatefulPartitionedCall/siren_morpher03/BatchGatherND_2/strided_slice_4/stack_1", "shape": [1], "dtype": "int32"}, {"name": "StatefulPartitionedCall/siren_morpher03/BatchGatherND_2/strided_slice_4/stack_2", "shape": [1], "dtype": "int32"}, {"name": "StatefulPartitionedCall/siren_morpher03/BatchGatherND_2/concat_2/axis", "shape": [], "dtype": "int32"}, {"name": "StatefulPartitionedCall/siren_morpher03/BatchGatherND_2/concat_3/axis", "shape": [], "dtype": "int32"}, {"name": "StatefulPartitionedCall/siren_morpher03/BatchGatherND_2/strided_slice_5/stack", "shape": [1], "dtype": "int32"}, {"name": "StatefulPartitionedCall/siren_morpher03/BatchGatherND_2/strided_slice_5/stack_1", "shape": [1], "dtype": "int32"}, {"name": "StatefulPartitionedCall/siren_morpher03/BatchGatherND_2/strided_slice_5/stack_2", "shape": [1], "dtype": "int32"}, {"name": "StatefulPartitionedCall/siren_morpher03/BatchGatherND_2/concat_4/axis", "shape": [], "dtype": "int32"}, {"name": "StatefulPartitionedCall/siren_morpher03/clip_by_value/Minimum/y", "shape": [], "dtype": "float32"}, {"name": "StatefulPartitionedCall/siren_morpher03/clip_by_value/y", "shape": [], "dtype": "float32"}, {"name": "StatefulPartitionedCall/siren_morpher03/clip_by_value_4/Minimum/y", "shape": [], "dtype": "float32"}, {"name": "StatefulPartitionedCall/siren_morpher03/clip_by_value_4/y", "shape": [], "dtype": "float32"}, {"name": "StatefulPartitionedCall/siren_morpher03/clip_by_value_2/Minimum/y", "shape": [], "dtype": "float32"}, {"name": "StatefulPartitionedCall/siren_morpher03/clip_by_value_2/y", "shape": [], "dtype": "float32"}, {"name": "StatefulPartitionedCall/siren_morpher03/clip_by_value_6/Minimum/y", "shape": [], "dtype": "float32"}, {"name": "StatefulPartitionedCall/siren_morpher03/clip_by_value_6/y", "shape": [], "dtype": "float32"}, {"name": "StatefulPartitionedCall/siren_morpher03/ExpandDims_8/dim", "shape": [], "dtype": "int32"}, {"name": "StatefulPartitionedCall/siren_morpher03/BatchGatherND_3/strided_slice_2/stack", "shape": [1], "dtype": "int32"}, {"name": "StatefulPartitionedCall/siren_morpher03/BatchGatherND_3/strided_slice_2/stack_1", "shape": [1], "dtype": "int32"}, {"name": "StatefulPartitionedCall/siren_morpher03/BatchGatherND_3/strided_slice_2/stack_2", "shape": [1], "dtype": "int32"}, {"name": "StatefulPartitionedCall/siren_morpher03/BatchGatherND_3/ones", "shape": [2], "dtype": "int32"}, {"name": "StatefulPartitionedCall/siren_morpher03/BatchGatherND_3/Range/start", "shape": [], "dtype": "int32"}, {"name": "StatefulPartitionedCall/siren_morpher03/BatchGatherND_3/Range/delta", "shape": [], "dtype": "int32"}, {"name": "StatefulPartitionedCall/siren_morpher03/BatchGatherND_3/meshgrid/ones/Const", "shape": [], "dtype": "int32"}, {"name": "StatefulPartitionedCall/siren_morpher03/BatchGatherND_3/transpose/perm", "shape": [2], "dtype": "int32"}, {"name": "StatefulPartitionedCall/siren_morpher03/BatchGatherND_3/strided_slice_3/stack", "shape": [1], "dtype": "int32"}, {"name": "StatefulPartitionedCall/siren_morpher03/BatchGatherND_3/strided_slice_3/stack_1", "shape": [1], "dtype": "int32"}, {"name": "StatefulPartitionedCall/siren_morpher03/BatchGatherND_3/strided_slice_3/stack_2", "shape": [1], "dtype": "int32"}, {"name": "StatefulPartitionedCall/siren_morpher03/BatchGatherND_3/concat/axis", "shape": [], "dtype": "int32"}, {"name": "StatefulPartitionedCall/siren_morpher03/BatchGatherND_3/concat_1/values_0", "shape": [1], "dtype": "int32"}, {"name": "StatefulPartitionedCall/siren_morpher03/BatchGatherND_3/strided_slice_1/stack", "shape": [1], "dtype": "int32"}, {"name": "StatefulPartitionedCall/siren_morpher03/BatchGatherND_3/strided_slice_1/stack_1", "shape": [1], "dtype": "int32"}, {"name": "StatefulPartitionedCall/siren_morpher03/BatchGatherND_3/strided_slice_1/stack_2", "shape": [1], "dtype": "int32"}, {"name": "StatefulPartitionedCall/siren_morpher03/BatchGatherND_3/concat_1/values_2", "shape": [1], "dtype": "int32"}, {"name": "StatefulPartitionedCall/siren_morpher03/BatchGatherND_3/concat_1/axis", "shape": [], "dtype": "int32"}, {"name": "StatefulPartitionedCall/siren_morpher03/BatchGatherND_3/strided_slice/stack", "shape": [1], "dtype": "int32"}, {"name": "StatefulPartitionedCall/siren_morpher03/BatchGatherND_3/strided_slice/stack_1", "shape": [1], "dtype": "int32"}, {"name": "StatefulPartitionedCall/siren_morpher03/BatchGatherND_3/strided_slice/stack_2", "shape": [1], "dtype": "int32"}, {"name": "StatefulPartitionedCall/siren_morpher03/BatchGatherND_3/Prod/reduction_indices", "shape": [1], "dtype": "int32"}, {"name": "StatefulPartitionedCall/siren_morpher03/strided_slice_12/stack", "shape": [2], "dtype": "int32"}, {"name": "StatefulPartitionedCall/siren_morpher03/strided_slice_12/stack_1", "shape": [2], "dtype": "int32"}, {"name": "StatefulPartitionedCall/siren_morpher03/strided_slice_12/stack_2", "shape": [2], "dtype": "int32"}, {"name": "StatefulPartitionedCall/siren_morpher03/add_2/y", "shape": [], "dtype": "float32"}, {"name": "StatefulPartitionedCall/siren_morpher03/Cast_1", "shape": [], "dtype": "float32"}, {"name": "StatefulPartitionedCall/siren_morpher03/sub_1/y", "shape": [], "dtype": "float32"}, {"name": "StatefulPartitionedCall/siren_morpher03/mul_3/y", "shape": [], "dtype": "float32"}, {"name": "StatefulPartitionedCall/siren_morpher03/add_4/y", "shape": [], "dtype": "float32"}, {"name": "StatefulPartitionedCall/siren_morpher03/clip_by_value_3/Minimum/y", "shape": [], "dtype": "float32"}, {"name": "StatefulPartitionedCall/siren_morpher03/clip_by_value_3/y", "shape": [], "dtype": "float32"}, {"name": "StatefulPartitionedCall/siren_morpher03/clip_by_value_7/Minimum/y", "shape": [], "dtype": "float32"}, {"name": "StatefulPartitionedCall/siren_morpher03/clip_by_value_7/y", "shape": [], "dtype": "float32"}, {"name": "StatefulPartitionedCall/siren_morpher03/ExpandDims_4", "shape": [1, 512, 512, 3], "dtype": "float32"}, {"name": "StatefulPartitionedCall/siren_morpher03/Tile_10/multiples/1", "shape": [], "dtype": "int32"}, {"name": "StatefulPartitionedCall/siren_morpher03/Tile_10/multiples/2", "shape": [], "dtype": "int32"}, {"name": "StatefulPartitionedCall/siren_morpher03/Tile_10/multiples/3", "shape": [], "dtype": "int32"}, {"name": "StatefulPartitionedCall/siren_morpher03/Reshape_9/shape/1", "shape": [], "dtype": "int32"}, {"name": "StatefulPartitionedCall/siren_morpher03/Reshape_9/shape/2", "shape": [], "dtype": "int32"}, {"name": "StatefulPartitionedCall/siren_morpher03/ExpandDims_3", "shape": [1, 2, 3], "dtype": "float32"}, {"name": "StatefulPartitionedCall/siren_morpher03/Tile_9/multiples/1", "shape": [], "dtype": "int32"}, {"name": "StatefulPartitionedCall/siren_morpher03/Tile_9/multiples/2", "shape": [], "dtype": "int32"}, {"name": "StatefulPartitionedCall/siren_morpher03/strided_slice_10/stack", "shape": [1], "dtype": "int32"}, {"name": "StatefulPartitionedCall/siren_morpher03/strided_slice_10/stack_1", "shape": [1], "dtype": "int32"}, {"name": "StatefulPartitionedCall/siren_morpher03/strided_slice_10/stack_2", "shape": [1], "dtype": "int32"}, {"name": "StatefulPartitionedCall/siren_morpher03/Reshape_10/shape/1", "shape": [], "dtype": "int32"}, {"name": "StatefulPartitionedCall/siren_morpher03/Reshape_10/shape/2", "shape": [], "dtype": "int32"}, {"name": "StatefulPartitionedCall/siren_morpher03/Reshape_10/shape/3", "shape": [], "dtype": "int32"}, {"name": "StatefulPartitionedCall/siren_morpher03/strided_slice_11/stack", "shape": [2], "dtype": "int32"}, {"name": "StatefulPartitionedCall/siren_morpher03/strided_slice_11/stack_1", "shape": [2], "dtype": "int32"}, {"name": "StatefulPartitionedCall/siren_morpher03/strided_slice_11/stack_2", "shape": [2], "dtype": "int32"}, {"name": "StatefulPartitionedCall/siren_morpher03/add_1/y", "shape": [], "dtype": "float32"}, {"name": "StatefulPartitionedCall/siren_morpher03/Cast", "shape": [], "dtype": "float32"}, {"name": "StatefulPartitionedCall/siren_morpher03/sub/y", "shape": [], "dtype": "float32"}, {"name": "StatefulPartitionedCall/siren_morpher03/mul_1/y", "shape": [], "dtype": "float32"}, {"name": "StatefulPartitionedCall/siren_morpher03/add_3/y", "shape": [], "dtype": "float32"}, {"name": "StatefulPartitionedCall/siren_morpher03/clip_by_value_1/Minimum/y", "shape": [], "dtype": "float32"}, {"name": "StatefulPartitionedCall/siren_morpher03/clip_by_value_1/y", "shape": [], "dtype": "float32"}, {"name": "StatefulPartitionedCall/siren_morpher03/clip_by_value_5/Minimum/y", "shape": [], "dtype": "float32"}, {"name": "StatefulPartitionedCall/siren_morpher03/clip_by_value_5/y", "shape": [], "dtype": "float32"}, {"name": "StatefulPartitionedCall/siren_morpher03/BatchGatherND_3/strided_slice_4/stack", "shape": [1], "dtype": "int32"}, {"name": "StatefulPartitionedCall/siren_morpher03/BatchGatherND_3/strided_slice_4/stack_1", "shape": [1], "dtype": "int32"}, {"name": "StatefulPartitionedCall/siren_morpher03/BatchGatherND_3/strided_slice_4/stack_2", "shape": [1], "dtype": "int32"}, {"name": "StatefulPartitionedCall/siren_morpher03/BatchGatherND_3/concat_2/axis", "shape": [], "dtype": "int32"}, {"name": "StatefulPartitionedCall/siren_morpher03/BatchGatherND_3/concat_3/axis", "shape": [], "dtype": "int32"}, {"name": "StatefulPartitionedCall/siren_morpher03/BatchGatherND_3/strided_slice_5/stack", "shape": [1], "dtype": "int32"}, {"name": "StatefulPartitionedCall/siren_morpher03/BatchGatherND_3/strided_slice_5/stack_1", "shape": [1], "dtype": "int32"}, {"name": "StatefulPartitionedCall/siren_morpher03/BatchGatherND_3/strided_slice_5/stack_2", "shape": [1], "dtype": "int32"}, {"name": "StatefulPartitionedCall/siren_morpher03/BatchGatherND_3/concat_4/axis", "shape": [], "dtype": "int32"}, {"name": "StatefulPartitionedCall/siren_morpher03/sequential_2/siren_layers.2.2/mul/x", "shape": [], "dtype": "float32"}, {"name": "StatefulPartitionedCall/siren_morpher03/sequential_2/siren_layers.2.1/mul/x", "shape": [], "dtype": "float32"}, {"name": "StatefulPartitionedCall/siren_morpher03/sequential_2/siren_layers.2.0/mul/x", "shape": [], "dtype": "float32"}, {"name": "StatefulPartitionedCall/siren_morpher03/sequential_1/siren_layers.1.2/mul/x", "shape": [], "dtype": "float32"}, {"name": "StatefulPartitionedCall/siren_morpher03/sequential_1/siren_layers.1.1/mul/x", "shape": [], "dtype": "float32"}, {"name": "StatefulPartitionedCall/siren_morpher03/sequential_1/siren_layers.1.0/mul/x", "shape": [], "dtype": "float32"}, {"name": "StatefulPartitionedCall/siren_morpher03/sequential/siren_layers.0.2/mul/x", "shape": [], "dtype": "float32"}, {"name": "StatefulPartitionedCall/siren_morpher03/sequential/siren_layers.0.1/mul/x", "shape": [], "dtype": "float32"}, {"name": "StatefulPartitionedCall/siren_morpher03/sequential/siren_layers.0.0/mul/x", "shape": [], "dtype": "float32"}, {"name": "StatefulPartitionedCall/siren_morpher03/Reshape_1", "shape": [1, 128, 128, 2], "dtype": "float32"}, {"name": "StatefulPartitionedCall/siren_morpher03/Tile_1/multiples/1", "shape": [], "dtype": "int32"}, {"name": "StatefulPartitionedCall/siren_morpher03/Tile_1/multiples/2", "shape": [], "dtype": "int32"}, {"name": "StatefulPartitionedCall/siren_morpher03/Tile_1/multiples/3", "shape": [], "dtype": "int32"}, {"name": "StatefulPartitionedCall/siren_morpher03/strided_slice_1/stack", "shape": [1], "dtype": "int32"}, {"name": "StatefulPartitionedCall/siren_morpher03/strided_slice_1/stack_1", "shape": [1], "dtype": "int32"}, {"name": "StatefulPartitionedCall/siren_morpher03/strided_slice_1/stack_2", "shape": [1], "dtype": "int32"}, {"name": "StatefulPartitionedCall/siren_morpher03/strided_slice_2/stack", "shape": [1], "dtype": "int32"}, {"name": "StatefulPartitionedCall/siren_morpher03/strided_slice_2/stack_1", "shape": [1], "dtype": "int32"}, {"name": "StatefulPartitionedCall/siren_morpher03/strided_slice_2/stack_2", "shape": [1], "dtype": "int32"}, {"name": "StatefulPartitionedCall/siren_morpher03/Reshape_2/shape/2", "shape": [], "dtype": "int32"}, {"name": "StatefulPartitionedCall/siren_morpher03/Reshape_2/shape/3", "shape": [], "dtype": "int32"}, {"name": "StatefulPartitionedCall/siren_morpher03/Tile_2/multiples", "shape": [4], "dtype": "int32"}, {"name": "StatefulPartitionedCall/siren_morpher03/transpose/perm", "shape": [4], "dtype": "int32"}, {"name": "StatefulPartitionedCall/siren_morpher03/concat/axis", "shape": [], "dtype": "int32"}, {"name": "StatefulPartitionedCall/siren_morpher03/sequential/siren_layers.0.0/linear/Conv2D/ReadVariableOp", "shape": [1, 1, 47, 360], "dtype": "float32"}, {"name": "StatefulPartitionedCall/siren_morpher03/sequential/siren_layers.0.0/linear/BiasAdd/ReadVariableOp", "shape": [360], "dtype": "float32"}, {"name": "StatefulPartitionedCall/siren_morpher03/sequential/siren_layers.0.1/linear/Conv2D/ReadVariableOp", "shape": [1, 1, 360, 360], "dtype": "float32"}, {"name": "StatefulPartitionedCall/siren_morpher03/sequential/siren_layers.0.1/linear/BiasAdd/ReadVariableOp", "shape": [360], "dtype": "float32"}, {"name": "StatefulPartitionedCall/siren_morpher03/sequential/siren_layers.0.2/linear/Conv2D/ReadVariableOp", "shape": [1, 1, 360, 180], "dtype": "float32"}, {"name": "StatefulPartitionedCall/siren_morpher03/sequential/siren_layers.0.2/linear/BiasAdd/ReadVariableOp", "shape": [180], "dtype": "float32"}, {"name": "StatefulPartitionedCall/siren_morpher03/resize/size", "shape": [2], "dtype": "int32"}, {"name": "StatefulPartitionedCall/siren_morpher03/Reshape_4", "shape": [1, 256, 256, 2], "dtype": "float32"}, {"name": "StatefulPartitionedCall/siren_morpher03/Tile_4/multiples/1", "shape": [], "dtype": "int32"}, {"name": "StatefulPartitionedCall/siren_morpher03/Tile_4/multiples/2", "shape": [], "dtype": "int32"}, {"name": "StatefulPartitionedCall/siren_morpher03/Tile_4/multiples/3", "shape": [], "dtype": "int32"}, {"name": "StatefulPartitionedCall/siren_morpher03/strided_slice_3/stack", "shape": [1], "dtype": "int32"}, {"name": "StatefulPartitionedCall/siren_morpher03/strided_slice_3/stack_1", "shape": [1], "dtype": "int32"}, {"name": "StatefulPartitionedCall/siren_morpher03/strided_slice_3/stack_2", "shape": [1], "dtype": "int32"}, {"name": "StatefulPartitionedCall/siren_morpher03/strided_slice_4/stack", "shape": [1], "dtype": "int32"}, {"name": "StatefulPartitionedCall/siren_morpher03/strided_slice_4/stack_1", "shape": [1], "dtype": "int32"}, {"name": "StatefulPartitionedCall/siren_morpher03/strided_slice_4/stack_2", "shape": [1], "dtype": "int32"}, {"name": "StatefulPartitionedCall/siren_morpher03/Reshape_5/shape/2", "shape": [], "dtype": "int32"}, {"name": "StatefulPartitionedCall/siren_morpher03/Reshape_5/shape/3", "shape": [], "dtype": "int32"}, {"name": "StatefulPartitionedCall/siren_morpher03/Tile_5/multiples", "shape": [4], "dtype": "int32"}, {"name": "StatefulPartitionedCall/siren_morpher03/transpose_1/perm", "shape": [4], "dtype": "int32"}, {"name": "StatefulPartitionedCall/siren_morpher03/concat_2/axis", "shape": [], "dtype": "int32"}, {"name": "StatefulPartitionedCall/siren_morpher03/sequential_1/siren_layers.1.0/linear/Conv2D/ReadVariableOp", "shape": [1, 1, 227, 180], "dtype": "float32"}, {"name": "StatefulPartitionedCall/siren_morpher03/sequential_1/siren_layers.1.0/linear/BiasAdd/ReadVariableOp", "shape": [180], "dtype": "float32"}, {"name": "StatefulPartitionedCall/siren_morpher03/sequential_1/siren_layers.1.1/linear/Conv2D/ReadVariableOp", "shape": [1, 1, 180, 180], "dtype": "float32"}, {"name": "StatefulPartitionedCall/siren_morpher03/sequential_1/siren_layers.1.1/linear/BiasAdd/ReadVariableOp", "shape": [180], "dtype": "float32"}, {"name": "StatefulPartitionedCall/siren_morpher03/sequential_1/siren_layers.1.2/linear/Conv2D/ReadVariableOp", "shape": [1, 1, 180, 90], "dtype": "float32"}, {"name": "StatefulPartitionedCall/siren_morpher03/sequential_1/siren_layers.1.2/linear/BiasAdd/ReadVariableOp", "shape": [90], "dtype": "float32"}, {"name": "StatefulPartitionedCall/siren_morpher03/resize_1/size", "shape": [2], "dtype": "int32"}, {"name": "StatefulPartitionedCall/siren_morpher03/Reshape_7", "shape": [1, 512, 512, 2], "dtype": "float32"}, {"name": "StatefulPartitionedCall/siren_morpher03/strided_slice/stack", "shape": [1], "dtype": "int32"}, {"name": "StatefulPartitionedCall/siren_morpher03/strided_slice/stack_1", "shape": [1], "dtype": "int32"}, {"name": "StatefulPartitionedCall/siren_morpher03/strided_slice/stack_2", "shape": [1], "dtype": "int32"}, {"name": "StatefulPartitionedCall/siren_morpher03/Tile_7/multiples/1", "shape": [], "dtype": "int32"}, {"name": "StatefulPartitionedCall/siren_morpher03/Tile_7/multiples/2", "shape": [], "dtype": "int32"}, {"name": "StatefulPartitionedCall/siren_morpher03/Tile_7/multiples/3", "shape": [], "dtype": "int32"}, {"name": "StatefulPartitionedCall/siren_morpher03/strided_slice_5/stack", "shape": [1], "dtype": "int32"}, {"name": "StatefulPartitionedCall/siren_morpher03/strided_slice_5/stack_1", "shape": [1], "dtype": "int32"}, {"name": "StatefulPartitionedCall/siren_morpher03/strided_slice_5/stack_2", "shape": [1], "dtype": "int32"}, {"name": "StatefulPartitionedCall/siren_morpher03/strided_slice_6/stack", "shape": [1], "dtype": "int32"}, {"name": "StatefulPartitionedCall/siren_morpher03/strided_slice_6/stack_1", "shape": [1], "dtype": "int32"}, {"name": "StatefulPartitionedCall/siren_morpher03/strided_slice_6/stack_2", "shape": [1], "dtype": "int32"}, {"name": "StatefulPartitionedCall/siren_morpher03/Reshape_8/shape/2", "shape": [], "dtype": "int32"}, {"name": "StatefulPartitionedCall/siren_morpher03/Reshape_8/shape/3", "shape": [], "dtype": "int32"}, {"name": "StatefulPartitionedCall/siren_morpher03/Tile_8/multiples", "shape": [4], "dtype": "int32"}, {"name": "StatefulPartitionedCall/siren_morpher03/transpose_2/perm", "shape": [4], "dtype": "int32"}, {"name": "StatefulPartitionedCall/siren_morpher03/concat_4/axis", "shape": [], "dtype": "int32"}, {"name": "StatefulPartitionedCall/siren_morpher03/sequential_2/siren_layers.2.0/linear/Conv2D/ReadVariableOp", "shape": [1, 1, 137, 90], "dtype": "float32"}, {"name": "StatefulPartitionedCall/siren_morpher03/sequential_2/siren_layers.2.0/linear/BiasAdd/ReadVariableOp", "shape": [90], "dtype": "float32"}, {"name": "StatefulPartitionedCall/siren_morpher03/sequential_2/siren_layers.2.1/linear/Conv2D/ReadVariableOp", "shape": [1, 1, 90, 90], "dtype": "float32"}, {"name": "StatefulPartitionedCall/siren_morpher03/sequential_2/siren_layers.2.1/linear/BiasAdd/ReadVariableOp", "shape": [90], "dtype": "float32"}, {"name": "StatefulPartitionedCall/siren_morpher03/sequential_2/siren_layers.2.2/linear/Conv2D/ReadVariableOp", "shape": [1, 1, 90, 90], "dtype": "float32"}, {"name": "StatefulPartitionedCall/siren_morpher03/sequential_2/siren_layers.2.2/linear/BiasAdd/ReadVariableOp", "shape": [90], "dtype": "float32"}, {"name": "StatefulPartitionedCall/siren_morpher03/last_linear/Conv2D/ReadVariableOp", "shape": [1, 1, 90, 7], "dtype": "float32"}, {"name": "StatefulPartitionedCall/siren_morpher03/last_linear/BiasAdd/ReadVariableOp", "shape": [7], "dtype": "float32"}, {"name": "StatefulPartitionedCall/siren_morpher03/strided_slice_7/stack", "shape": [4], "dtype": "int32"}, {"name": "StatefulPartitionedCall/siren_morpher03/strided_slice_7/stack_1", "shape": [4], "dtype": "int32"}, {"name": "StatefulPartitionedCall/siren_morpher03/strided_slice_7/stack_2", "shape": [4], "dtype": "int32"}, {"name": "ConstantFolding/StatefulPartitionedCall/siren_morpher03/BatchGatherND/concat_2/values_0_const_axis", "shape": [], "dtype": "int32"}, {"name": "ConstantFolding/StatefulPartitionedCall/siren_morpher03/BatchGatherND_1/concat_2/values_0_const_axis", "shape": [], "dtype": "int32"}, {"name": "ConstantFolding/StatefulPartitionedCall/siren_morpher03/BatchGatherND_2/concat_2/values_0_const_axis", "shape": [], "dtype": "int32"}, {"name": "ConstantFolding/StatefulPartitionedCall/siren_morpher03/BatchGatherND_3/concat_2/values_0_const_axis", "shape": [], "dtype": "int32"}, {"name": "ConstantFolding/StatefulPartitionedCall/siren_morpher03/BatchGatherND/meshgrid/ones/packed_const_axis", "shape": [], "dtype": "int32"}, {"name": "ConstantFolding/StatefulPartitionedCall/siren_morpher03/BatchGatherND_1/meshgrid/ones/packed_const_axis", "shape": [], "dtype": "int32"}, {"name": "ConstantFolding/StatefulPartitionedCall/siren_morpher03/BatchGatherND_2/meshgrid/ones/packed_const_axis", "shape": [], "dtype": "int32"}, {"name": "ConstantFolding/StatefulPartitionedCall/siren_morpher03/BatchGatherND_3/meshgrid/ones/packed_const_axis", "shape": [], "dtype": "int32"}, {"name": "ConstantFolding/StatefulPartitionedCall/siren_morpher03/BatchGatherND/stack_const_axis", "shape": [], "dtype": "int32"}, {"name": "ConstantFolding/StatefulPartitionedCall/siren_morpher03/BatchGatherND_1/stack_const_axis", "shape": [], "dtype": "int32"}, {"name": "ConstantFolding/StatefulPartitionedCall/siren_morpher03/BatchGatherND_2/stack_const_axis", "shape": [], "dtype": "int32"}, {"name": "ConstantFolding/StatefulPartitionedCall/siren_morpher03/BatchGatherND_3/stack_const_axis", "shape": [], "dtype": "int32"}]}]}